tasks/BinaryRainfallPrediction/output/model1/exp00001/best_model.pth (torch, 6374 bytes, 5 tensors)

model.0.weight f4 [32, 10]
0	0xbeaf1f18	-0.3420341
1	0xbe522fc6	-0.20526037
2	0xbdea4c8b	-0.11440381
3	0xbd172a78	-0.036905736
4	0xbd271909	-0.04079536
5	0x3e5473ea	0.20747343
6	0xbe61d70b	-0.22054689
7	0xbbae4a0e	-0.0053188866
8	0x3ca72c61	0.020406904
9	0x3dcde62b	0.10053667
10	0x3ea0b1b6	0.31385583
11	0x3e4eee17	0.20208012
12	0xbe29d029	-0.16583313
13	0xbe7fd8a1	-0.24984981
14	0xbd94218a	-0.072329596
15	0xbe3db751	-0.18526961
16	0x3d9b5b7b	0.07585808
17	0x3cdf4af1	0.027257415
18	0x3e812ecf	0.25231025
19	0x3dce634b	0.100775324
20	0xbd963345	-0.07333998
21	0xbcc272dc	-0.02373641
22	0x3d3c0385	0.045901794
23	0xbd818fa1	-0.06326223
24	0x3e8a17bf	0.26971242
25	0xbe222eba	-0.15838137
26	0x3e83d786	0.2575037
27	0xbe998ad6	-0.29988736
28	0xbe85dbbd	-0.2614421
29	0xbcf9c97a	-0.03049158
30	0x3ddd0618	0.10792178
31	0x3e8318bb	0.25604805
32	0x3deabbcf	0.11461603
33	0x3c3c68d0	0.011499599
34	0x3cf82f63	0.030296033
35	0xbdae5a3d	-0.08513305
36	0x3cec867e	0.028872725
37	0xbda1e1a9	-0.079043694
38	0x3ea07c56	0.3134486
39	0x3e40e8c5	0.18838795
40	0xbe7c0363	-0.24610667
41	0x3bb1328a	0.005407636
42	0xbe43c9dd	-0.19119973
43	0xbd46737d	-0.048449982
44	0xbe82615b	-0.254649
45	0x3d3e2fe2	0.046432383
46	0xbe88a166	-0.26685637
47	0x3eab0723	0.33403882
48	0x3e70f86a	0.23532262
49	0xbe6753be	-0.22590539
50	0xbe96330e	-0.29335827
51	0xbd1c3b4a	-0.03814248
52	0xbe0233a7	-0.12715016
53	0x3d7831ab	0.060594242
54	0xbe63365e	-0.22188708
55	0x3e60d4bd	0.21956153
56	0xbe328eda	-0.17437306
57	0xbe8a300a	-0.26989776
58	0xbe4c996b	-0.199804
59	0x3e3d8457	0.18507515
60	0xbd1a9019	-0.03773508
61	0xbe91137f	-0.28335187
62	0xbe22f7c0	-0.15914822
63	0xbdfd2779	-0.123610444
64	0xbe87a5bc	-0.26493633
65	0x3d6190f0	0.055069864
66	0x3df84cd7	0.12124031
67	0xbd677625	-0.056509156
68	0xbdc7fbcd	-0.09764824
69	0xbcb02ab0	-0.02150473
70	0xbe895278	-0.2682073
71	0xbe35c8f3	-0.17752437
72	0x3c0a5ef7	0.008445493
73	0x3e96cf4b	0.29455027
74	0xbda8a2a6	-0.08234148
75	0x3e16dd60	0.14732885
76	0xbdfe2084	-0.124085456
77	0xbd9da826	-0.076980874
78	0xbe8fe2b0	-0.28102636
79	0x3e76e92f	0.2411239
80	0x3ea34ef7	0.31896183
81	0xbd4117b5	-0.04714175
82	0x3e2a1c8e	0.16612455
83	0x3e6b1354	0.22956592
84	0x3e1b1bbc	0.15147299
85	0x3e76efa1	0.24114849
86	0xbe59bfc5	-0.2126456
87	0xbebf6582	-0.37382132
88	0xbe764c16	-0.24052462
89	0x3df1ed16	0.11812799
90	0xbe8e51ef	-0.27796885
91	0xbe53d490	-0.20686555
92	0xbdfd48c3	-0.12367394
93	0xbe875e06	-0.26438922
94	0x3c49d94d	0.012319875
95	0xbc36ac49	-0.011149474
96	0xbe8722f2	-0.2639385
97	0x3e8ccfc5	0.27502266
98	0xbdc2cb59	-0.09511442
99	0xbdedf463	-0.11618879
100	0x3e5759e8	0.2103039
101	0x3e98c417	0.29837105
102	0xbbed12f1	-0.007234924
103	0xbe49bbb0	-0.19700503
104	0xbe119159	-0.14215602
105	0xbb84fb6c	-0.004058292
106	0x3e02b5d6	0.12764677
107	0x3e572476	0.21010002
108	0xbdb829e0	-0.08992362
109	0xbe8c3007	-0.27380392
110	0xbe83f3e2	-0.25772005
111	0xbe255246	-0.16144666
112	0xbd3cd63d	-0.04610275
113	0xbe3b4e24	-0.18291527
114	0xbe88fd92	-0.2675596
115	0x3e095f02	0.13415149
116	0xbe0ad83e	-0.13559052
117	0xbeb6a830	-0.35675192
118	0xbeab3b82	-0.33443838
119	0xbd4b6e58	-0.04966578
120	0x3e9aa883	0.3020669
121	0x3dd617d3	0.10453763
122	0xbd7d5f88	-0.061858684
123	0x3d0e68a3	0.034767758
124	0x3da1a0d4	0.07892004
125	0xbd951f57	-0.07281368
126	0xbeb2eb43	-0.34945115
127	0xbdd0ab94	-0.10188976
128	0xbe72c811	-0.23709132
129	0xbbdbf986	-0.006713095
130	0xbea5cc5b	-0.32382473
131	0xbcdb29b6	-0.026753288
132	0xbda5ee04	-0.081020385
133	0x3eb23176	0.3480336
134	0x3ea1e087	0.31616613
135	0x3e8785bf	0.26469228
136	0x3ddb1a3a	0.10698362
137	0xbe1f10e0	-0.15533781
138	0x3dc7c71e	0.097547755
139	0xbe671513	-0.22566633
140	0xbdf4ee76	-0.11959545
141	0xbcd2dc82	-0.025739912
142	0xbd28097f	-0.04102468
143	0xbe8ba47e	-0.27273935
144	0x3dea09af	0.11427628
145	0x3e30fba3	0.17283492
146	0xbe85a434	-0.2610184
147	0x3e2c6f5f	0.1683936
148	0xbc886769	-0.016650872
149	0xbd33d6e9	-0.043906126
150	0x3c865d25	0.016401837
151	0x3e8e67cb	0.27813563
152	0x3d413a3c	0.047174677
153	0xbe497516	-0.19673571
154	0xbdd63e34	-0.10461083
155	0x3e29900d	0.16558857
156	0x3dd809ba	0.1054873
157	0x3b98294d	0.0046435953
158	0xbd005c3e	-0.03133797
159	0xbe03241d	-0.12806745
160	0xbe130e97	-0.14361034
161	0xbe08e6a1	-0.13369228
162	0x3db70778	0.089369714
163	0x3e039d1f	0.12852906
164	0x3e92c107	0.28662893
165	0xbd37f465	-0.044910807
166	0x3d7f40fb	0.06231783
167	0x3e23ece7	0.1600834
168	0x3e1bccf5	0.15214904
169	0x3d20e1b1	0.039277736
170	0x3d92b526	0.071634576
171	0x3d89f067	0.06735306
172	0xbe6265e1	-0.22109176
173	0x3d7a0ad5	0.061045486
174	0xbd0e5370	-0.03474754
175	0x3e5e9489	0.21736349
176	0x3e5e645d	0.21717973
177	0x3dfc639e	0.12323688
178	0x3e93fb15	0.28902498
179	0xbe2fafc5	-0.17156895
180	0x3e9d6a44	0.30745137
181	0x3e67f0ad	0.22650404
182	0xbd502d57	-0.05082449
183	0xbe91e115	-0.28492036
184	0xbdf2eb27	-0.11861258
185	0xbd4147ee	-0.047187738
186	0x3d9d571c	0.076826304
187	0xbeba736c	-0.36416185
188	0x3c82d609	0.0159712
189	0xbe076b9f	-0.13224648
190	0xbdcec233	-0.10095634
191	0xbe072d87	-0.13200961
192	0xbd1861e8	-0.037202746
193	0xbe870bb0	-0.26376104
194	0xbe14d985	-0.14536102
195	0xbb47efca	-0.0030507916
196	0x3e327acb	0.17429654
197	0x3ea302c5	0.3183805
198	0xbe62f205	-0.22162636
199	0x3ddbecd2	0.10738529
200	0xbe2543d1	-0.16139151
201	0xbe6bcc63	-0.23027186
202	0xbb42ad1c	-0.0029705232
203	0xbe30ecea	-0.17277876
204	0xbe9399f9	-0.2882841
205	0xbeb574b9	-0.35440615
206	0xbe974cf9	-0.29550913
207	0x3ea4d994	0.3219725
208	0x3e2bf8f5	0.16794188
209	0xbe0bb138	-0.13641822
210	0xbe5c8097	-0.21533428
211	0xbe48176d	-0.19540186
212	0xbe148a40	-0.14505863
213	0xbdbff04e	-0.09372006
214	0x3e4d260a	0.20034042
215	0x3c9502dd	0.018189842
216	0xbe57863b	-0.21047299
217	0x3e9a70d2	0.301642
218	0xbe26c2b0	-0.16285205
219	0xbe880e22	-0.26573282
220	0xbc54eb52	-0.012995558
221	0xbdc6e59e	-0.09711765
222	0x3e2d91a8	0.16950095
223	0x3eb4161f	0.35173127
224	0xbd61f9c7	-0.055169847
225	0xbe24e589	-0.16103186
226	0x3e5aac98	0.21354902
227	0xbeb8c152	-0.36084992
228	0x3eb8689d	0.36017314
229	0xbe45b612	-0.19307736
230	0x3e131c2e	0.14366218
231	0xbe850ecc	-0.25987852
232	0xbe5bfc35	-0.21482928
233	0x3d1e86d5	0.038702805
234	0x3e06f1c5	0.13178165
235	0x3e8fee70	0.281116
236	0x3ea8e585	0.3298761
237	0xbda35dd3	-0.0797688
238	0xbd997117	-0.07492273
239	0x3d385539	0.04500315
240	0xbdd82a91	-0.10554994
241	0x3d3af9f0	0.045648515
242	0xbe88355d	-0.26603213
243	0xbe684199	-0.22681274
244	0x3e7ca386	0.24671754
245	0xbe4f5505	-0.20247276
246	0x3e6116e1	0.21981384
247	0x3d87c9ed	0.06630311
248	0x3de6a56c	0.112620205
249	0x3e822dbb	0.25425515
250	0xbe63aa35	-0.22232898
251	0xbccaa21d	-0.024735505
252	0x3db3fb06	0.08788113
253	0x3e14b368	0.14521563
254	0xbe8763d4	-0.2644335
255	0x3e19ffe0	0.15039015

model.0.bias f4 [32]
0	0xbd59d0ed	-0.053177763
1	0xbe67df2f	-0.22643732
2	0x3ec80225	0.39064136
3	0xbd319bea	-0.04336158
4	0x3e2a1610	0.16609979
5	0x3ea198c2	0.31561857
6	0xbe6edba7	-0.23325978
7	0xbd533984	-0.051568523
8	0x3e7bea2d	0.2460105
9	0x3e968341	0.29397014
10	0xbdbaceba	-0.09121461
11	0x3ea7aa41	0.3274708
12	0xbe5a1eba	-0.21300784
13	0xbe034ca0	-0.12822199
14	0x3e4a782a	0.19772401
15	0xbcac5b3f	-0.021039603
16	0x3eb92fd3	0.361693
17	0xbd313f6f	-0.043273386
18	0xbd806fac	-0.062713
19	0x3e8cb104	0.27478802
20	0x3e97981c	0.29608238
21	0x3b81e23b	0.0039637364
22	0xbdb54c70	-0.0885247
23	0x3d61e564	0.055150405
24	0xbe3bace2	-0.18327668
25	0x3e935b98	0.28780818
26	0x3d9e6b45	0.07735304
27	0x3df1c02c	0.11804232
28	0x3e5ed668	0.21761477
29	0x3e2ba9c7	0.16763984
30	0xbe0f2704	-0.13979727
31	0x3eb2957b	0.3487967

model.3.weight f4 [16, 32]
0	0x3dcd836e	0.10034834
1	0xbdf0741d	-0.11740897
2	0x3e78567b	0.2425174
3	0x3dc9e4c0	0.09858084
4	0xbda45d84	-0.08025649
5	0xbd4063d8	-0.04697022
6	0x3cbb8853	0.022892153
7	0xbdce7a73	-0.10081949
8	0x3e4bcbe3	0.19901995
9	0x3db9d52a	0.09073861
10	0xbcd9bb0a	-0.026578445
11	0x3e76ce75	0.24102195
12	0xbdf7e83e	-0.121048436
13	0x3dff6024	0.12469509
14	0xbdd1638c	-0.10224065
15	0x3da289f4	0.07936469
16	0x3e020a63	0.12699275
17	0x3e27b654	0.16378146
18	0x3d7d2f2b	0.06181256
19	0xbd319078	-0.043350667
20	0x3d899043	0.06716969
21	0x3d8e6059	0.069519706
22	0x3e01a8b6	0.12662014
23	0x3cc528f9	0.024067389
24	0x3daa7c7b	0.08324524
25	0x3cc2c1cf	0.023774056
26	0x3e426c24	0.18986565
27	0x3d77426d	0.060366083
28	0xbd1559a6	-0.03646245
29	0x3d987e3e	0.07445954
30	0x3d060c56	0.03272661
31	0x3cdfc0e8	0.027313665
32	0x3e1d8be1	0.15385391
33	0x3db17214	0.08664337
34	0xbe347861	-0.17624046
35	0x3bb033d6	0.005377273
36	0xbdccc443	-0.099983715
37	0xbe25bb2d	-0.16184683
38	0x3a219d9b	0.00061651476
39	0x3b84c315	0.004051576
40	0xbd443c92	-0.047909327
41	0x3e41c3d7	0.18922363
42	0xbdc5388f	-0.09629928
43	0xbdd34f66	-0.103178784
44	0x3d20ce49	0.03925923
45	0xbc6457e8	-0.013936974
46	0xbcbd49ba	-0.023106445
47	0x3e02256d	0.1270959
48	0xbd5b3681	-0.053518776
49	0xbe05ef6d	-0.13079615
50	0xbc2c1fc5	-0.010505621
51	0x3dd0c3c4	0.10193589
52	0x3db20874	0.086930186
53	0x3e00ebfa	0.12590018
54	0x3cad42c3	0.021149999
55	0x3dce05dc	0.10059711
56	0x3d8eb554	0.06968179
57	0x3e253c4b	0.16136281
58	0xbae1a1b0	-0.0017214324
59	0xbdd23f43	-0.102659725
60	0xbcfe6fe9	-0.031059222
61	0x3d5d100e	0.05397039
62	0x3e3d5f6e	0.18493435
63	0xbd838bcc	-0.064231485
64	0x3e1c9c7e	0.15294072
65	0x3d1a1fb5	0.037627894
66	0x3dddf9e5	0.10838679
67	0x3d47342b	0.048633736
68	0xbd9d0a27	-0.07667952
69	0x3e802753	0.25030002
70	0x3d919136	0.07107775
71	0x3e37e29b	0.17957537
72	0xbd536c3f	-0.051616903
73	0xbddcf022	-0.10787989
74	0x3d5884fc	0.0528612
75	0x3e6857a0	0.22689676
76	0x3d00ea87	0.031473663
77	0x3e03a3ed	0.12855501
78	0xbe0bf9a9	-0.13669457
79	0x3db7ee40	0.089809895
80	0xbd6877d2	-0.056754895
81	0xbd8791c2	-0.06619598
82	0x3dc0f884	0.094224006
83	0xbd57290a	-0.052529372
84	0x3de9d0d3	0.11416783
85	0xbe04d68d	-0.1297247
86	0x3e1cabfb	0.1529998
87	0x3e4e0c6f	0.2012193
88	0xbd9cc5d4	-0.0765492
89	0x3defcec9	0.11709363
90	0xba965b66	-0.0011471331
91	0x3e068698	0.13137281
92	0x3dfb3421	0.12265802
93	0xbc4945e4	-0.01228473
94	0xbe118fd4	-0.14215022
95	0x3e3ed02a	0.18634096
96	0xbc5839c1	-0.013197363
97	0xbcdf547c	-0.027261965
98	0x3dbf0337	0.09326785
99	0xbdb1e653	-0.08686509
100	0xbc28e5f1	-0.010308729
101	0x3d9ae965	0.07564048
102	0x3d290386	0.041263126
103	0xbe122352	-0.14271286
104	0x3b83bdc5	0.004020425
105	0xbe29888c	-0.16555995
106	0xbdeee03f	-0.11663865
107	0x3d850e07	0.06496816
108	0xbd8c170b	-0.068403326
109	0xbde38a39	-0.11110348
110	0xbc9e8237	-0.0193492
111	0x3c4313db	0.011906589
112	0xbe07814a	-0.13232914
113	0xbe1526a8	-0.14565527
114	0xbe3f3140	-0.18671131
115	0x3c23d246	0.009998864
116	0xbdf1751e	-0.117899165
117	0xbc83ce16	-0.01608948
118	0xbd5f99a0	-0.054589868
119	0xbe11ff4f	-0.14257549
120	0xbd9624f8	-0.0733127
121	0xbe17ab0b	-0.14811341
122	0xbdc22f9f	-0.09481739
123	0xbd08a66a	-0.03336183
124	0xbe0d421e	-0.13794753
125	0xbe38fa67	-0.18064271
126	0x3d9172b9	0.0710196
127	0xbc647c34	-0.013945628
128	0xbdb28f26	-0.0871871
129	0xb8da8dca	-0.0001042146
130	0x3e826a6d	0.2547182
131	0xbdbba49c	-0.09162256
132	0xbe040e46	-0.1289607
133	0xbd3b38ee	-0.04570859
134	0x3d500ae0	0.05079162
135	0x3d99c76a	0.07508738
136	0xbd01c779	-0.031684373
137	0x3db6564e	0.0890318
138	0xbdd40fec	-0.10354599
139	0x3e7c41aa	0.24634424
140	0xbe27a001	-0.1636963
141	0x3db0e256	0.0863692
142	0x3d51486f	0.05109447
143	0x3cc31259	0.02381246
144	0x3e68fe6d	0.22753306
145	0xbc817f86	-0.015807878
146	0x3d8fd00b	0.07022103
147	0xbda4604e	-0.08026181
148	0xbad6e58f	-0.0016395318
149	0x3ddf6f87	0.10909944
150	0x3e8b18fc	0.271675
151	0x3e0b1aec	0.13584489
152	0xbce7371d	-0.028224522
153	0x3e4ddff1	0.20104958
154	0x3d397c95	0.045284826
155	0x3e248d5d	0.16069551
156	0xbe0fa3a0	-0.14027262
157	0xbbf8dc59	-0.007594627
158	0xbe55dec8	-0.20885766
159	0x3e5354f6	0.20637879
160	0x3d843396	0.06455152
161	0xbd9ffb56	-0.078116104
162	0xbd621238	-0.055193156
163	0xbd8239b7	-0.063586645
164	0x3d921cf6	0.0713443
165	0x3d780f38	0.06056139
166	0xbd8e73fe	-0.069557175
167	0x3c521458	0.012822233
168	0xbde02df9	-0.109462686
169	0x3ddaa899	0.10676689
170	0xbdfbf219	-0.12302036
171	0x3ce9eed6	0.028556269
172	0x3e81bffc	0.25341785
173	0x3dc00555	0.09376017
174	0x3dd26f03	0.1027508
175	0x3da01545	0.07816557
176	0x3e2d12ae	0.16901657
177	0xbc66e5ca	-0.014092872
178	0x3d867377	0.06564992
179	0x3d4a701e	0.04942333
180	0x3e6c92f4	0.23102933
181	0x3e62f34c	0.22163123
182	0xbe11020f	-0.14160942
183	0xbd6dc031	-0.058044616
184	0xbdd920a6	-0.1060193
185	0x3dafd30e	0.08585177
186	0xbe133567	-0.1437584
187	0x3da0bd60	0.078486204
188	0x3c9ead10	0.019369632
189	0x3d943911	0.07237447
190	0x3e11e9b1	0.14249302
191	0xbd17b24a	-0.037035264
192	0x3dbc0760	0.09181094
193	0x3d81bb7d	0.06334589
194	0xbe642261	-0.2227874
195	0x3e1b4b15	0.1516536
196	0x3e49fc00	0.19725037
197	0x3d370172	0.044679113
198	0xbd8e999c	-0.069628924
199	0x3c883e85	0.016631374
200	0xbe1d990e	-0.15390417
201	0xbd260da2	-0.040540345
202	0x3d84f412	0.06491865
203	0x3c947ac4	0.018124945
204	0x3e02103b	0.12701504
205	0xbe625192	-0.22101429
206	0x3dfe8660	0.12427974
207	0xbe04986d	-0.12948771
208	0x3e00e36c	0.12586755
209	0x3da9db1b	0.08293744
210	0x3c4a2e6f	0.012340172
211	0x3dfad7d8	0.122482
212	0x3e1bbcd7	0.15208755
213	0x3e0e7d73	0.13915043
214	0xbdfa6aaf	-0.122273795
215	0x3dbc3905	0.09190563
216	0xbba2a9e2	-0.0049640993
217	0x3dc512c1	0.09622718
218	0xbd46d57c	-0.04854344
219	0x3dfda9b9	0.12385888
220	0x3e537533	0.20650177
221	0xbe27b605	-0.16378029
222	0x3e4871b0	0.19574618
223	0xbe0f449a	-0.13991013
224	0xbd81edf0	-0.06344211
225	0xbe1b4ed1	-0.15166785
226	0x3d0cc360	0.03436601
227	0xbdf94e07	-0.12173086
228	0xbd6c8c86	-0.0577512
229	0xbdb70a76	-0.08937542
230	0x3cebaf10	0.02877
231	0xbe024f90	-0.12725663
232	0xbda2dd6a	-0.07952388
233	0xbc895b5f	-0.016767202
234	0xbb248e03	-0.002510906
235	0xbdb02174	-0.08600131
236	0x3d302404	0.043003097
237	0xbdee4c9d	-0.116357066
238	0xbe159ca5	-0.14610536
239	0xbca3d6dc	-0.019999914
240	0xbdd0916a	-0.101839855
241	0x3db90847	0.09034782
242	0xbdfd3af9	-0.12364764
243	0xbcb99e66	-0.022658538
244	0x3d61ea24	0.055154935
245	0xbe1dfcff	-0.15428542
246	0x3defd34b	0.11710223
247	0xbdb2eef8	-0.08736986
248	0xbd580f8e	-0.05274921
249	0xbdd6dab9	-0.10490937
250	0xbd8b8b74	-0.06813708
251	0xbd916c2c	-0.0710071
252	0xbe26fc7f	-0.16307257
253	0x3d37d402	0.04487992
254	0xbb70b77e	-0.0036730464
255	0x3e16412b	0.14673297

model.3.bias f4 [16]
0	0x3dd7fe47	0.105465464
1	0x3d07517a	0.033036686
2	0x3e83f72b	0.25774512
3	0xbc536a41	-0.012903751
4	0x3cc57c28	0.024107054
5	0xbe365fcb	-0.1780998
6	0x3c9b8ee4	0.018989034
7	0x3d3e814a	0.04651002
8	0x3e7e06f6	0.24807343
9	0xbdeb02ac	-0.11475119
10	0x3d423e48	0.047422677
11	0x3d75c17a	0.059998967
12	0x3d5f99d1	0.05459005
13	0x3d7fcb73	0.062449884
14	0xbe45004f	-0.19238399
15	0x3da8c648	0.08240944

model.6.weight f4 [1, 16]
0	0x3e4916be	0.19637582
1	0xbe0920fd	-0.1339149
2	0x3e5e542f	0.21711801
3	0xbc5d7b49	-0.013518163
4	0x3dfe92d3	0.12430348
5	0xbe0ac00c	-0.13549823
6	0xbe7c6cc3	-0.24650864
7	0x3c6194da	0.013768399
8	0x3e62630f	0.221081
9	0xbc0f3857	-0.00874146
10	0xbdec7018	-0.11544818
11	0x3dcf22bb	0.10114046
12	0x3e19fe57	0.15038429
13	0xbcf7fa83	-0.03027082
14	0xbe2f8441	-0.17140295
15	0xbde1785b	-0.11009284
