tasks/BinaryRainfallPrediction/exp/exp00001/run00001/checkpoints/checkpoint_best.pth (torch, 19246 bytes, 15 tensors)

model.0.weight f4 [32, 10]
00000000: 842b 39bd 8a2f 43be 5da0 a53c f128 f4bd
00000010: 96f8 143d 3a3f c03d ce31 953e 6b7c 9ebe
00000020: dc1c 6f3d 45dc 6bbd 9c85 8a3e d0b7 443e
00000030: 64b0 8bba 214f 3ebe f65c dcbc 5987 403e
00000040: 937d c9be 2d7e 673e d3c1 4ebe 3b6e 91be
00000050: 1162 47bc 651b 0dbe 079a 14bd 91f5 07be
00000060: 6b0f 18be a829 8abd 4f02 a7be 6a56 b33e
00000070: ddb7 0d3d c9b9 92be 345e febc fbc4 19be
00000080: f287 16bc a505 08bc 8453 5fbe 00fc 29be
00000090: f1f6 5f3d 7df0 08be 4e14 adbe de09 4ebd
000000a0: 5f1d 6f3e 4073 333e 3b65 0cbe 2dfa 81be
000000b0: 1ed6 ef3d f21b 743d fe78 8bbe a3fd 493e
000000c0: c51e 923e e25e a83e ce3d 8d3d f81b 85bd
000000d0: b6db 33be 6a9d 73be cbfc 723e b422 6a3e
000000e0: 196d 9dbd c6c7 343e fad0 5fbe 9978 953c
000000f0: 5a2d 6b3e 8ff3 7c3e 63a9 883e 3700 7c3d
00000100: 7757 91bd 9a45 833d 9d4f 67be e1c5 7fbe
00000110: 61b0 523e 03bf 2cbd 2c59 323e 9852 253e
00000120: f933 a03e d65c 50be 7fa5 a33e cd6f 863e
00000130: 37c2 ae3c 3139 133e 9256 833e 021d db3d
00000140: fe91 2dbe 9f10 0e3e f6ea 76be 1a83 a73e
00000150: 684f 233e e594 bd3e ed76 c53e 8391 43be
00000160: 3145 423e 6fce 4e3e 05e0 51be 3301 8e3e
00000170: 0645 e33d b6dd fc3d dc4f fc3d ae36 f1bc
00000180: f3f5 7bbe bfbc 8dbe a519 203d 685b 2fbe
00000190: 6c81 65be 43b5 0d3e dd13 f43d a41a 1ebe
000001a0: ceca 9c3d fd6a d83c 41fd cd3d 51f7 f4bd
000001b0: 36a9 143b 2990 a3bd a6ce d6bd 6726 55be
000001c0: 5f4f 893e 1dae 543c 81d3 953e 33b6 08be
000001d0: 53c4 323e 6c91 41be 84f2 a43e 197b 813e
000001e0: 5a9f 2bbe f635 6d3d 1155 2cbe 3f32 cdbd
000001f0: f1b1 5cbd 7b8c e5bd 8b9d 45be 5f70 913e
00000200: 6adc 5f3e a6c4 35be 9b75 4bbe 50d2 78be
00000210: accc 843e a16c 11be 418f af3e ad6a 263e
00000220: 112e f73d 33d2 5a3c cb13 923e 25f7 97be
00000230: 7833 16b8 00ae 86be 88f4 5ebe cbd3 b23d
00000240: 46c9 6fbe f9d7 78be b505 123d 37c3 a4be
00000250: 689b 01bc 5129 583e 72f3 6a3e 83ae 84be
00000260: 19ab c6bd 410d c6bc 5700 91be 3338 0d3e
00000270: 594a 30bc 39a0 acbd e180 ef3c 44dd b5ba
00000280: a718 6abc 03f7 e3bd 0fd5 c2bd 2f9a 793e
00000290: cd67 ed3c 5725 34be edf0 2b3e 1646 25be
000002a0: 7557 10be 8e98 843e f651 983d e8bd d3ba
000002b0: 9c4a 52bc 5eb5 c0bc 89b0 553e a1e1 e53d
000002c0: dc3f 213e 6d02 8c3d 6a90 863c da7b ec3b
000002d0: 5ac2 6b3d b699 0f3d 9d3d 873e 8d12 653c
000002e0: e7e2 40bc 5111 5dbe 4da0 213e 57d0 81bd
000002f0: d2ca 393d 65fb 683e 2fa1 51be aede 8e3c
00000300: 9658 623e 4de9 8bbe 9b25 dd3d 0b5f 2e3d
00000310: dd1f 3c3e 757a 0b3e 3948 39bd 3859 e2bd
00000320: b176 553d 2cc9 7b3e 4b75 4b3e 013c 44bd
00000330: bfda 533e 5df2 503d 3d62 1c3e e53f 21be
00000340: 693c 98bd fe78 f8bd b9d9 273d 94cb 97bd
00000350: 818c 763e 8eff 1e3d d686 5b3d bf4a 563e
00000360: 63d8 673e ac78 98be f7f7 873e 4092 a03e
00000370: 0d66 8c3e c818 ad3e 031c 13be 5ddd 803c
00000380: 6873 01be 02a6 69bd 3df1 863e 73dd 183b
00000390: 7a75 703e 997b 90be 4464 72bc 6b40 743e
000003a0: fb04 d83d e985 28be e0d3 7a3e bc67 23be
000003b0: 5a89 2bbc 7286 8abe a900 663e ccd8 e9bd
000003c0: e3ab 07be 4e22 503e eb93 46be 2d09 d63d
000003d0: b3da 32bd 5fe7 16be 67de 86be 1195 2dbe
000003e0: 8f6f 4b3e 97a9 01be 6242 663a 9c97 a9bc
000003f0: 05ef 9c3e 5bdf 63be cbbe ab3e bd73 513d
-0.045207515 -0.19061103 0.020218069 -0.119218715 0.036369883 0.093870595 0.2913956 -0.30954298
0.05837713 -0.057583112 0.2705506 0.19210744 -0.0010657427 -0.18584873 -0.026899796 0.18801631
-0.39353618 0.22606726 -0.20191126 -0.28404412 -0.012169377 -0.13779981 -0.036279704 -0.1327727
-0.14849631 -0.067462265 -0.3261895 0.35026866 0.034599174 -0.28657368 -0.031050779 -0.15016548
-0.009187685 -0.008302127 -0.21809202 -0.16600037 0.05467886 -0.13372989 -0.33804554 -0.05030238
0.23351048 0.17524433 -0.13710491 -0.2538618 0.117107615 0.059596963 -0.27240747 0.19725661
0.285391 0.3288489 0.06896554 -0.06499475 -0.17564282 -0.23790517 0.23729245 0.228648
-0.07686824 0.17654333 -0.21857062 0.018245982 0.22966519 0.24702285 0.26691732 0.061523642
-0.07096761 0.0640976 -0.22588964 -0.24977829 0.20575096 -0.04217435 0.17416829 0.16144788
0.31289652 -0.20347914 0.319622 0.26257172 0.021332843 0.14377286 0.25651985 0.10698892
-0.16950223 0.13873528 -0.24113068 0.3271721 0.1594826 0.3702766 0.38567296 -0.19098477
0.18971707 0.20195936 -0.20495613 0.2773529 0.110971496 0.123469755 0.123199195 -0.029445019
-0.24605541 -0.27683064 0.039086957 -0.17124712 -0.22412652 0.13838677 0.11917851 -0.1543985
0.076558694 0.026418203 0.1005807 -0.11961234 0.0022683865 -0.07986481 -0.10488634 -0.2081543
0.26818368 0.012980965 0.29262927 -0.13350753 0.17457704 -0.1890313 0.32216275 0.2528923
-0.16760007 0.05791279 -0.16829325 -0.10019349 -0.053880636 -0.11208435 -0.19298379 0.28406045
0.21861425 -0.17750797 -0.19869082 -0.24298978 0.25937402 -0.14201595 0.34288982 0.16251631
0.12069333 0.013355779 0.28530726 -0.29680744 -3.581072e-05 -0.26304626 -0.21772969 0.087318026
-0.23416623 -0.24301137 0.035649974 -0.32180187 -0.007910587 0.21109511 0.2294443 -0.25914392
-0.09700603 -0.024176242 -0.28320572 0.1379097 -0.010759913 -0.084289975 0.029236259 -0.0013875146
-0.014288104 -0.11131098 -0.09513294 0.24375223 0.02898016 -0.17592369 0.16791125 -0.16140017
-0.14095862 0.2589764 0.07437508 -0.0016154619 -0.012835171 -0.023523983 0.20868124 0.11224676
0.15747017 0.068364 0.016426284 0.0072169127 0.057558395 0.0350587 0.26414195 0.013981474
-0.011772848 -0.21588637 0.15783806 -0.06338566 0.04535944 0.2275215 -0.20471643 0.017440166
0.22104105 -0.27326432 0.10798188 0.04257111 0.1837153 0.13620932 -0.045234893 -0.110521734
0.052115146 0.2458846 0.19868962 -0.047908787 0.20688914 0.051012386 0.1527185 -0.1574703
-0.07433397 -0.121324524 0.04097912 -0.07411876 0.24077035 0.038817935 0.053595386 0.20926951
0.22641139 -0.29779565 0.2655637 0.3136158 0.2742161 0.3380797 -0.14366154 0.015730554
-0.1264168 -0.057043083 0.26355925 0.0023325353 0.23482314 -0.28219298 -0.014794413 0.23852699
0.10547825 -0.16457333 0.24494886 -0.1595754 -0.010469759 -0.270557 0.2246119 -0.11418304
-0.13249163 0.20325586 -0.19392364 0.10450969 -0.0436656 -0.14736699 -0.26341555 -0.16951396
0.19866775 -0.1266235 0.00087836955 -0.020702176 0.30651107 -0.22253172 0.33544 0.051135767

model.0.bias f4 [32]
00000000: 645a b13c 7566 8fbd 928d 723d 0fe9 753d
00000010: ba25 79be 12dd 80be ad17 df3d 7276 5f3e
00000020: 821d be3d 820c 4abd 6ef8 ffbc ac74 46be
00000030: 0b74 4d3e abb0 273e 6bf7 e93b bb2f 3cbd
00000040: 281b 61bc 8276 87be 74ce 813e 1f98 88be
00000050: d024 1dbd d76e bc3e 3e6a 5c3d 5c2e 9b3e
00000060: 7ebd 38be 3846 b13e 240c a0be 3a57 933e
00000070: fd13 eebd 8279 833c 7ea9 673e 9f19 953e
0.021649547 -0.07001964 0.059217043 0.060036715 -0.24330798 -0.25168663 0.10893188 0.21822527
0.09282972 -0.049328335 -0.03124639 -0.19380444 0.20063798 0.16375987 0.00714009 -0.045943957
-0.013739385 -0.26457602 0.25352824 -0.2667856 -0.038365185 0.36803314 0.053812258 0.30308807
-0.18041036 0.34623885 -0.31259263 0.28777486 -0.11624906 0.01604915 0.2262325 0.2912111

model.3.weight f4 [16, 32]
00000000: b6e3 d6bd c06a 8dbc 4185 1abe f2bc 51be
00000010: 85e6 bf3d 9654 bd3d c4a2 3bbe c063 843d
00000020: 3c8d dd3d 9ad4 e8bc a15f de3d d234 fbbd
00000030: c140 2abe 16bd dc3d 1641 ea3d ec84 953d
00000040: cfa7 b4bc b2a3 26be 7a4a f3bd 9cfb 11bd
00000050: 6cd1 9bbc 0469 5b3c 430d 023e 7e67 35be
00000060: e247 33be 92e0 d1bd 2b58 05be 155e c5bd
00000070: 8457 10be 1e8d a83d 3230 9c3d c191 cb3c
00000080: 1fad 45bc bfc4 51bd 1c52 1cbe c46a 4d3d
00000090: 6dd8 fe3c c35c 40bd 92e2 8dbc 1b87 2a3e
000000a0: b406 223e 2f3d 473d c077 243e 6b0d 89bd
000000b0: 9829 2a3d fa99 d13d c494 163e 7b64 373c
000000c0: ecfd b0bd 5789 743d d65e 9c3d 3bfa 013e
000000d0: 1070 403d 8ae1 543e 628d b3bd b4b4 343d
000000e0: 3e43 553d da2e 1f3e 02c9 c3bd 50ba a53d
000000f0: 1b3f 9fbd 4f7c 953d 529e 153e be19 4e3e
00000100: 83f3 853e 483b 1dbd 5583 c23c e424 d1bd
00000110: 0805 21be 0112 91bd 2050 643e 129b 423d
00000120: 93e6 ab3d ff1c 673d 7054 72bc b05d 5e3e
00000130: 2444 9cbd a2ea 2abd 7b0d 643e ca04 71bc
00000140: 6c66 4d3e e230 d33d 6822 013d 66b0 39bd
00000150: f3de 1c3e f6ea 53bd b63d 083e 2e2e 3cbd
00000160: 4d92 cbbd f09d 613c 1365 f7bd c8dc 753e
00000170: 240b 9fbc 4c85 833d c568 c63d f535 313e
00000180: dee4 673d 7fe5 403e e856 5f3e 5bed adbc
00000190: ca22 783e bd49 0abe 33e6 10bd 7d35 1abc
000001a0: 567e 13bd 5207 2f3c d2b6 bb3d ac8c e63d
000001b0: 8756 4c3e 5475 c2bd 8697 d03b 2437 50bd
000001c0: 9cfb 06be 9f4a 263c 4c19 a23d 5459 0dbe
000001d0: bdbc cfbd 8a80 0cbe 0fa7 b9bb 30f6 173e
000001e0: 335e 983d d159 f83d 63f7 8d3d 7462 49bd
000001f0: d2ed 1f3d 8f35 2f3e 92ae 003e 0b34 57bc
00000200: ef01 453e 837d f4bd 3b3c 6bbd db70 263e
00000210: 6213 0abe 1c69 143d 9393 593e 0e3a a6ba
00000220: 2e8f 64bc 7108 adba b27c 443d bf31 533e
00000230: 4ee1 d43a da53 fdbc d6dc c23c 0cc6 023b
00000240: 4e78 433e f45d d6bd 0d1c 023e 3de9 0f3b
00000250: 2188 54bc 54cc 143e 2251 9abd 2b4b 85bc
00000260: 3ede c1bd 76e6 d23d 069d 2c3d f726 313e
00000270: c160 0b3e d6f9 bfbd 54f4 6e3e 8968 083e
00000280: 4d4d 063e 5888 e3bc 2571 40bd 7052 9c3b
00000290: 4a05 b8bc 4906 a3bd a06e b03d 7aed b7bd
000002a0: 3bb7 1f3e a425 74bc a7fc c33d da72 fc3d
000002b0: 8d83 14be e78c ea3c 0c5f 36bd 9737 423e
000002c0: a729 e63d 6901 733d 2809 0bbc b505 ddbc
000002d0: ef8f 953d 02ed 843e 91d5 d1bd 6172 693e
000002e0: 3d2c 4c3d e83c 94bc 4ac7 35bd d0ef de3d
000002f0: 983f 533d 55ef 523e 0926 083e a4a6 2c3d
00000300: 232b 55bd 90df ca3d a580 27bd 13cf 7d3d
00000310: 1255 82bc 6b24 253d ac7b 2dbd 4a53 6cbc
00000320: e8fb db3d 55f4 1abe 247e d9bd cb11 ec3d
00000330: 99f6 30bd f368 18be 2712 a63d 4b95 31be
00000340: 8d18 14be c84c c13c 5bef cc3d ca7b 85b9
00000350: 634b 8abd a63c 12be 76c2 0cbe 7149 9b3c
00000360: a77e b3bd ca6d 00bc 4ac8 8f3b 9638 1bbe
00000370: c408 af3c 6ced 4bbd f0eb 7f3c ff6b 0d3e
00000380: 8558 8a3d f27b 3dbd ba7b 9c3d f625 8f3d
00000390: 4a96 db3d 38bd 843d 1fe0 10be 5b9e 963d
000003a0: 8b06 f73b 473d ad3c 786c d43d 3495 02be
000003b0: a757 783d 20ef 23be 8dc5 8f3d ab04 963d
000003c0: abf8 e9bd c234 c53d 7afa 1dbd d103 bdbd
000003d0: 9169 c23d 7f8f 98bd e12f d6bd d28e 15be
000003e0: 158c 2e3e 6792 023d 71af e53d 0568 09bd
000003f0: 99a8 8abd bfa3 afbb ec29 85bd 8d91 1a3d
-0.10492651 -0.017262816 -0.15089895 -0.20482233 0.0937014 0.09244649 -0.18323809 0.06464338
0.10817954 -0.028421689 0.108580835 -0.12265934 -0.16626264 0.10778253 0.114381954 0.073007435
-0.022052674 -0.16273382 -0.1187944 -0.035640344 -0.019020759 0.013391737 0.12700371 -0.1771526
-0.1750789 -0.102479115 -0.13021915 -0.09637085 -0.14095885 0.08230041 0.0762638 0.024849774
-0.012065201 -0.051213022 -0.15265697 0.050150648 0.03110906 -0.046963464 -0.017319951 0.16653101
0.1582287 0.048642334 0.16061306 -0.066920124 0.041543573 0.10234447 0.14705187 0.01119339
-0.08642182 0.05970129 0.07635276 0.12693112 0.04698187 0.20789161 -0.08767201 0.044117644
0.05206608 0.15545216 -0.095598236 0.08092177 -0.07775708 0.072991006 0.14611176 0.20127007
0.26162347 -0.038386613 0.023744265 -0.102121145 -0.15724576 -0.07083512 0.2229619 0.047511168
0.08393588 0.056424137 -0.014790639 0.21715426 -0.07630184 -0.04172767 0.22270767 -0.014710614
0.20058602 0.10312058 0.031526953 -0.045334242 0.15319423 -0.051737748 0.13304791 -0.045942478
-0.09940014 0.013770565 -0.12079825 0.24010003 -0.019414492 0.06421909 0.09687952 0.17305739
0.05661475 0.18837546 0.21810496 -0.021231344 0.24232021 -0.13504691 -0.035375785 -0.009412167
-0.036009155 0.010682898 0.091657296 0.112573 0.19954883 -0.09495035 0.0063657193 -0.050833836
-0.13181919 0.010149627 0.07914981 -0.13803607 -0.10143421 -0.13720909 -0.005665667 0.14840007
0.07439842 0.12126506 0.06931951 -0.049166158 0.039045162 0.17110275 0.12566593 -0.013134967
0.19239019 -0.11938002 -0.057430487 0.16253988 -0.13483956 0.036233053 0.21247701 -0.0012682097
-0.013950152 -0.0013201368 0.04797048 0.20624445 0.0016241462 -0.030923773 0.023786943 0.001995447
0.19088861 -0.10467139 0.12706013 0.002195909 -0.012971909 0.1453107 -0.07535006 -0.016271194
-0.094662175 0.10297863 0.042141937 0.1730002 0.13611127 -0.09373824 0.23335391 0.13321127
0.13115425 -0.027774975 -0.046982903 0.0047705695 -0.02246346 -0.07960183 0.0861485 -0.08980842
0.1559724 -0.014901552 0.09569674 0.12326594 -0.14503308 0.02863164 -0.044524238 0.18966518
0.11238413 0.059327517 -0.00848607 -0.02698026 0.07302844 0.25962073 -0.10245813 0.22797538
0.049846876 -0.018095449 -0.04437951 0.10885584 0.05157432 0.2059911 0.1329576 0.04215111
-0.05204309 0.099059224 -0.04089417 0.06196506 -0.015909705 0.040317934 -0.04235427 -0.014424155
0.10741407 -0.15132268 -0.106197625 0.11526831 -0.043203924 -0.14883785 0.08108931 -0.17342107
-0.1446249 0.023596182 0.10006591 -0.00025459967 -0.0675266 -0.14280948 -0.13746056 0.018955918
-0.087643914 -0.007838676 0.00438789 -0.15158305 0.021366484 -0.04978697 0.015620217 0.13810728
0.06755165 -0.04626078 0.076407865 0.06989662 0.10722025 0.06481403 -0.14147995 0.07354423
0.007538622 0.021147383 0.10372251 -0.12752229 0.060630467 -0.16009188 0.07020102 0.07325109
-0.11424383 0.096292034 -0.03856895 -0.092292435 0.094927914 -0.07449245 -0.10458351 -0.14605263
0.17045625 0.0318779 0.112151034 -0.033546466 -0.06770439 -0.005360096 -0.065021366 0.037736464

model.3.bias f4 [16]
00000000: 89ea 33bd 31a2 62bc 2903 32bd d04d fbbd
00000010: 01a8 b5ba d3b0 423e 2eae 18be b238 90bd
00000020: 36a5 c1bd 64ed 6bbb 51c0 9a3d 00b1 803d
00000030: e5c3 713d bcf6 44bd 6a23 fb3d c4c3 e83d
-0.043924842 -0.013832615 -0.043460045 -0.12270701 -0.0013859273 0.19012766 -0.14910194 -0.07042064
-0.094553396 -0.003599965 0.07556213 0.0628376 0.05902471 -0.048086867 0.12262614 0.11365464

model.6.weight f4 [1, 16]
00000000: 0617 01be e907 5c3e 7d79 593e 2be5 c9bd
00000010: 8573 803e 9754 d33d 06c5 aabd 957f 5abe
00000020: 49cb 193e f53a 3d3e ecc2 6cbe b63f 943e
00000030: e852 a63e 4cd8 8a3e d00c 1bbe e0bc 33be
-0.12606439 0.21487392 0.2123775 -0.098581634 0.25088134 0.103188686 -0.083383605 -0.21337731
0.15018953 0.18479522 -0.23121232 0.28954858 0.32485127 0.27118146 -0.15141606 -0.17552519

exp_avg f4 [32, 10]
00000000: 67fe eeb9 1416 0b3b b1e2 093b 0281 cb3a
00000010: a2a1 49ba c7c2 90bb 848e 14bc a956 083c
00000020: 536c 803b 29d5 b03a c4d6 72ba 3256 61ba
00000030: 08ba 68ba 67d0 73b9 f219 9e3a 218b aa3b
00000040: 38c1 0c3c 18e1 c0bb 62b5 9738 efe5 6d39
00000050: b2ab cbbb 6f70 f23a 5458 603b 4fda a43b
00000060: 8f54 1f3c 3fc2 893c 5ec1 a43c 623e 8dbc
00000070: ccb9 0cbb bd59 32bb 5304 c13b e9cf b0ba
00000080: a59d 2cbb 1e98 63bb 938a d0bb 1829 4fbc
00000090: f969 56bc 444a 1b3c d06f f1b9 81e6 cdb9
000000a0: 1015 3cbb 0c2e 6d3a 4e48 e13a fcb5 fb3a
000000b0: 89e5 7c3b 5f34 ea3b 503f dc3b 2262 c1bb
000000c0: 8797 b63a d96c 393a e000 3b3a dbd6 a4ba
000000d0: a4ff 76ba 0106 3fba 4089 11b8 02a4 923b
000000e0: 40ad 903b 6889 2ebb 3823 a4b8 590a ab3a
000000f0: 3528 0a3b 6931 feba 233e 01bb ce60 17bb
00000100: 0feb 2bbb 2d73 c0ba c259 ffba 5912 e3b8
00000110: ff8d 2eba d502 9d3a 9269 503b 3500 8239
00000120: 8326 1e3a 0b6c 80b8 f8d9 d0ba dabe babb
00000130: e3aa 60bc 46b5 1b3c e5f8 563b 9bef 15b9
00000140: 7f9a 943b 2fd5 48ba 964b 8dba d9bf 09bb
00000150: 1cea 5abb 8f82 94bb 38da 21bc dd06 af3b
00000160: 0c9f 033a 6904 86ba 6cc7 b139 0f9a 7439
00000170: 9014 8639 175f 0a39 587e c6b5 9420 35ba
00000180: 040b 0dbb e1eb d53a 1186 593a 4e45 4338
00000190: 50f8 b23b 8cc0 3dbb b73a 4bbb 159a 6bbb
000001a0: 8812 8ebb 7302 0abb 9712 9dbb 7b6d 123b
000001b0: fd66 f939 cf12 bcb9 41b5 3d3b ae15 bfba
000001c0: 4382 b1ba 91c6 03bb ef7b 71bb e76f afbb
000001d0: 3a63 3abc 1426 c23b 69e8 0b3a eca2 023b
000001e0: 23e1 77bb 172a c23a d3cd 043b 78e3 2a3b
000001f0: 06bc a33b 1fb5 f73b 2119 4f3c d02f fcbb
00000200: 88a7 623b 7214 9cba af43 34b6 e3c9 883b
00000210: adff 8c3b 2d38 823b ea09 c83a 748e ffbb
00000220: 8e0f 85bc c408 533c cebb e83b 25a9 eeb9
00000230: 8903 3b3b 5395 3fba e91e d7ba f888 22bb
00000240: d609 73bb bc10 17bc 6f89 d1bb 3c2a b93b
00000250: c89e 65ba 78ea 0ebb ce75 c33b fb54 20bb
00000260: 2854 70bb da06 9bbb ef9a 06bc 5af7 52bc
00000270: 920e 4ebc 3a35 2c3c 89ee 30bb 2584 a0ba
00000280: 54b8 50b9 ebe8 5436 837c 24b9 9bd0 a5b8
00000290: b118 a9b8 28c3 2bba 6847 a9ba e78c 433a
000002a0: 3952 4939 6180 b838 6953 6137 8313 26b8
000002b0: 6551 f9b7 1ea4 8cb7 f2e5 96b7 1d11 1938
000002c0: 536d 8337 1794 afb8 9d97 61b9 3b3b 9ab8
000002d0: 8cac 453a 1c4b 0d3a b579 2439 0594 a8b9
000002e0: 8722 9dba 86cb b5bb 4cc5 d1bb e05d 883b
000002f0: 055e b33a c6cf 01bb 7f16 9439 2d61 8139
00000300: 3bc0 9b39 861b 5239 45bc a239 9a18 c539
00000310: 1f65 a5b9 a871 873a 142d 7338 dd10 aeb8
00000320: 3836 933b af11 47bb 9e60 4cbb 73a7 64bb
00000330: c79a 7fbb 0f88 1dbb 6620 82bb 4474 053b
00000340: 0c97 23bb 4b33 b83a e223 d03b a4e8 98ba
00000350: 11c1 86ba 2d1e 16bb 6451 9fbb fac0 fdbb
00000360: 3c7f 92bc 5374 ec3b 7f94 f53a d1d7 9e3b
00000370: c4ed 0b3c 2740 87bb d359 c4bb a18b f4bb
00000380: 401e 25bc 247b 34bc 7957 37bc acbf 3a3c
00000390: fda0 95ba d6ab 37bb d18e 3736 99f4 a83a
000003a0: e332 bc3a 8f6c 8e3a bd59 8639 0066 30bb
000003b0: fa1d e4bb c6af 8d3b 7aa4 703a 9143 6cba
000003c0: a788 3bba 6e52 6aba 3010 3cba 8b77 3aba
000003d0: 67dd f439 8a77 673b 02a3 c13b 3f6f 80bb
000003e0: c62a fdb7 ba33 d836 555b 1b3b 322e 693a
000003f0: dac3 4a3a d369 10b9 5522 c1ba 2137 f1bb
-0.00045584442 0.0021222876 0.002103966 0.0015526118 -0.00076916267 -0.0044177505 -0.0090671815 0.008321443
0.0039191633 0.0013491261 -0.000926357 -0.0008595913 -0.00088778185 -0.00023251922 0.0012062176 0.0052045737
0.008590989 -0.0058862083 7.234026e-05 0.00022687738 -0.006215536 0.0018496643 0.0034232335 0.005030907
0.00972475 0.016816257 0.020111736 -0.01724166 -0.0021473048 -0.0027214133 0.005890408 -0.0013489696
-0.002633908 -0.003472812 -0.0063641756 -0.012644075 -0.013086789 0.0094781555 -0.0004605041 -0.00039272386
-0.0028699078 0.0009047694 0.0017187686 0.0019204016 0.0038588962 0.0071473564 0.0067214146 -0.005901591
0.0013930657 0.00070734095 0.0007133614 -0.0012576239 -0.00094222487 -0.00072869664 -3.4698518e-05 0.0044751177
0.0044151843 -0.0026632193 -7.8266894e-05 0.0013049348 0.0021081094 -0.0019393387 -0.0019720874 -0.0023098472
-0.0026232635 -0.0014682763 -0.0019481706 -0.00010827621 -0.00066587323 0.0011978993 0.0031801206 0.00024795686
0.00060329604 -6.12364e-05 -0.00159341 -0.005699021 -0.013712618 0.009503668 0.0032802161 -0.00014299007
0.004535019 -0.00076611614 -0.0010779973 -0.002101889 -0.00334037 -0.0045321654 -0.009878688 0.0053413943
0.0005020953 -0.0010224703 0.00033908652 0.00023327045 0.00025573792 0.0001319613 -1.478892e-06 -0.00069094566
-0.0021521458 0.0016320908 0.00082978705 4.6556168e-05 0.00546173 -0.0028953878 -0.0031010339 -0.0035949994
-0.004335705 -0.0021058589 -0.004793476 0.0022343087 0.00047569713 -0.00035872168 0.0028947147 -0.0014578605
-0.0013542849 -0.0020107368 -0.0036847552 -0.005353916 -0.0113761965 0.0059249494 0.0005337061 0.0019933535
-0.00378234 0.0014813569 0.0020264282 0.0026075523 0.0049967794 0.007559433 0.012640269 -0.0076961294
0.003458472 -0.0011907949 -2.6861487e-06 0.0041744574 0.00430294 0.003973982 0.0015261744 -0.007798964
-0.016242769 0.012880508 0.007102466 -0.0004552092 0.0028536043 -0.0007308323 -0.001641241 -0.0024800878
-0.003708472 -0.009220298 -0.006394557 0.0056507867 -0.0008759317 -0.0021807235 0.005964971 -0.0024464715
-0.0036671255 -0.0047310414 -0.00821565 -0.012876356 -0.012576716 0.010510737 -0.0026997647 -0.0012246413
-0.00019905093 3.1726038e-06 -0.00015686643 -7.906669e-05 -8.063147e-05 -0.0006552213 -0.0012914957 0.0007459656
0.00019199484 8.797716e-05 1.34304655e-05 -3.9595656e-05 -2.9721015e-05 -1.6765724e-05 -1.798847e-05 3.649398e-05
1.5667325e-05 -8.372234e-05 -0.00021514152 -7.354325e-05 0.0007540665 0.00053899153 0.00015685598 -0.0003215374
-0.0011988439 -0.0055479435 -0.0064016934 0.0041615814 0.0013684636 -0.001980768 0.0002824552 0.000246772
0.00029707127 0.00020037414 0.0003103932 0.00037593098 -0.00031546594 0.0010333555 5.7977697e-05 -8.3001076e-05
0.0044925474 -0.003037553 -0.0031185518 -0.0034889847 -0.0039002167 -0.0024037396 -0.0039711474 0.002036349
-0.0024961857 0.0014053372 0.006351934 -0.0011666012 -0.0010280927 -0.002290617 -0.0048619974 -0.007743952
-0.017882936 0.0072160154 0.0018736272 0.0048475047 0.008540574 -0.0041275206 -0.005992153 -0.007462934
-0.010078013 -0.011015687 -0.011190289 0.011398237 -0.0011415776 -0.0028026006 2.7352255e-06 0.0012890279
0.0014358427 0.0010866093 0.00025625332 -0.0026916265 -0.0069615813 0.0043239323 0.00091797824 -0.0009012754
-0.00071538467 -0.00089386746 -0.0007174043 -0.000711315 0.00046704264 0.0035319054 0.0059093246 -0.0039195116
-3.0179868e-05 6.4433234e-06 0.0023705561 0.0008895128 0.00077348726 -0.00013772333 -0.0014734963 -0.007361308

exp_avg_sq f4 [32, 10]
00000000: ed71 2737 7291 6237 e671 5c37 81ad 5237
00000010: 76e0 6737 00dd 6137 4f67 1a37 69c5 5137
00000020: a96f 0737 0cf7 1b37 af7f 9736 0b67 a036
00000030: d01d a836 559e aa36 bd3e 8d36 081e fe36
00000040: c03d 4837 aa2f 1637 eb71 c536 0889 4336
00000050: 744c 0338 d928 cb37 99ab e337 c367 f637
00000060: d9a0 0238 c874 1f38 b5fe 8738 69df 4f38
00000070: 1fa6 d537 e9d5 7a37 f42d 8637 2660 3f37
00000080: 9cf3 4c37 ec92 5c37 0211 9137 f083 d237
00000090: e320 d637 e6b5 a337 a2e1 e136 12b7 1237
000000a0: 162d e335 2986 ad35 5bb3 d935 239c f435
000000b0: c5dd 1436 6515 8236 9f45 8736 a875 1e36
000000c0: d227 c235 c8bb ef35 8f3c 2137 2e9e 5137
000000d0: 7364 4437 9752 3e37 b21a 2a37 09c8 6b37
000000e0: 83ae 6437 37d7 3737 de77 b436 defd bc36
000000f0: c746 6b36 6328 3a36 ddf7 3636 95a6 3036
00000100: e901 4036 961f 3036 93ba 9a36 6065 5e36
00000110: 19d0 ab36 5fce 1f36 d200 0a37 5aa7 d736
00000120: 3b7c d636 5e83 d236 007f b936 8b0c 1437
00000130: ce9f c037 9eac a137 002f 6837 ec46 e636
00000140: 254f 2737 5038 e536 d537 df36 57df d536
00000150: aec9 d336 61ad 0c37 a40e 0137 de65 1e37
00000160: 36bd 6537 5511 eb36 a98b 1c35 8706 e534
00000170: 28e6 e034 8358 d434 e26c c334 8c1c f034
00000180: 1eac 4d35 916d 3f35 a6ec 3e35 2e5b 0135
00000190: 0309 a836 b41f 5a36 c586 5136 45b1 5236
000001a0: f588 4336 e7bc a836 1753 c036 61e3 b436
000001b0: 5d54 9f36 d74a 4536 8854 1737 a4bc ef36
000001c0: a49b ff36 f721 0337 2987 db36 0ce5 c836
000001d0: a466 2c37 d0b8 2437 49e1 7637 8360 fb36
000001e0: 4817 ac36 4a08 8d36 4db3 9d36 2099 ac36
000001f0: 1356 b336 526e ab36 21c3 0137 f8bc c536
00000200: 2a55 c736 2d46 3736 33c6 0037 c2a4 0537
00000210: 30c1 0137 ec3a fd36 b3e1 b336 c825 1637
00000220: ba5f cc37 e142 bb37 010d 3837 edd9 b136
00000230: ff15 df36 1a96 9e36 2676 b536 aa30 ca36
00000240: 2d21 0337 7026 9237 7cdb 2237 563a df36
00000250: f823 3a36 3b1e b136 e86b a637 8c49 a737
00000260: 4c22 b237 1f80 bc37 8815 e437 0b71 2038
00000270: b700 2438 0c79 f037 08a7 2837 cdcf 7337
00000280: 0a6f 2236 c572 1236 3a30 1936 22cf 1636
00000290: 2af3 2c36 358c 8636 c023 9136 948b 8c36
000002a0: 9585 2136 c3b5 f136 9f3a 3935 66f3 7035
000002b0: 0518 5d35 1c31 4b35 d44f 8835 be79 5e36
000002c0: 2955 e135 17bf ca35 6ae7 8235 8bb7 a235
000002d0: 2336 5936 b095 2136 04a5 3036 3830 3236
000002e0: 966a 5e36 3516 be36 5d06 9d36 cd2f 7e36
000002f0: 4fee 5736 81a3 1d36 3087 4235 9146 1d35
00000300: d1b3 1635 710d 0735 e448 e334 b893 cc34
00000310: 73cb 0935 f8e5 5d35 828c 5735 cd33 0935
00000320: 6e53 2a36 b006 eb35 02f7 db35 d144 e535
00000330: 349f d535 3811 d435 6257 4536 b547 2a36
00000340: 161f 1436 aa39 0136 e5c5 0838 7fd7 1738
00000350: a161 1138 e381 0938 95bc ef37 cb8e 6038
00000360: bfe2 7f38 34d5 8c38 9254 7838 0606 1938
00000370: fd47 5a37 0223 1b37 9773 3e37 ece7 5c37
00000380: a87b 7b37 e00c 4537 fc30 4637 749f 6037
00000390: 1c50 2837 8917 bb36 6672 f535 482f c635
000003a0: a8ad bf35 453d ba35 b50c 8835 5ee0 f535
000003b0: f6ca 7836 6e12 6036 3335 2536 a5d8 ce35
000003c0: ab9b 9635 59b6 7735 ed8b 8235 86a7 7b35
000003d0: 84f5 7135 ac7c a035 011f 4c36 6e6a ed35
000003e0: c504 dd35 5f5a 5335 f982 d236 7280 9736
000003f0: 92ec 9536 31bb 9a36 9255 a736 201f 5c37
9.980501e-06 1.3504514e-05 1.3139541e-05 1.2557372e-05 1.3820934e-05 1.3462501e-05 9.203169e-06 1.2503334e-05
8.072625e-06 9.29624e-06 4.515015e-06 4.7803674e-06 5.010261e-06 5.084827e-06 4.209431e-06 7.573286e-06
1.1935306e-05 8.951794e-06 5.8843193e-06 2.9137027e-06 3.1304036e-05 2.4218507e-05 2.7140415e-05 2.9373803e-05
3.1144216e-05 3.8017315e-05 6.4847445e-05 4.9560713e-05 2.5468935e-05 1.4950966e-05 1.5995443e-05 1.1406873e-05
1.2216067e-05 1.314723e-05 1.7293267e-05 2.5095389e-05 2.5526102e-05 1.9515817e-05 6.7317897e-06 8.7449025e-06
1.692594e-06 1.292855e-06 1.6219959e-06 1.8224858e-06 2.2182805e-06 3.8767926e-06 4.0314185e-06 2.361232e-06
1.4465716e-06 1.7861539e-06 9.610448e-06 1.24942e-05 1.1705898e-05 1.1344112e-05 1.0139005e-05 1.4053666e-05
1.3630491e-05 1.0957759e-05 5.3783724e-06 5.6323906e-06 3.5058927e-06 2.7739668e-06 2.7264389e-06 2.6323007e-06
2.8611341e-06 2.624443e-06 4.6112777e-06 3.3139586e-06 5.120423e-06 2.381297e-06 8.225632e-06 6.4269816e-06
6.3921593e-06 6.273781e-06 5.5282144e-06 8.824408e-06 2.2962598e-05 1.9273077e-05 1.3839221e-05 6.8627905e-06
9.972403e-06 6.8312875e-06 6.6524176e-06 6.373895e-06 6.3117686e-06 8.385018e-06 7.692408e-06 9.441252e-06
1.3693518e-05 7.0055635e-06 5.831776e-07 4.2659323e-07 4.1890712e-07 3.9552478e-07 3.6400803e-07 4.4724254e-07
7.6618915e-07 7.1312485e-07 7.1124884e-07 4.818893e-07 5.0078393e-06 3.2502985e-06 3.1221873e-06 3.1395623e-06
2.9136984e-06 5.0287813e-06 5.731719e-06 5.3908884e-06 4.7483904e-06 2.939885e-06 9.019983e-06 7.1447157e-06
7.617711e-06 7.8161165e-06 6.5424433e-06 5.987129e-06 1.0275897e-05 9.818192e-06 1.4715196e-05 7.4916184e-06
5.1287097e-06 4.2030924e-06 4.699838e-06 5.1438255e-06 5.344636e-06 5.10904e-06 7.734431e-06 5.8930564e-06
5.9405766e-06 2.7309973e-06 7.675541e-06 7.965778e-06 7.733979e-06 7.546847e-06 5.3608906e-06 8.949493e-06
2.4363271e-05 2.232328e-05 1.0970282e-05 5.300381e-06 6.6484786e-06 4.726241e-06 5.4079746e-06 6.0257344e-06
7.815933e-06 1.7422455e-05 9.707055e-06 6.652709e-06 2.7737096e-06 5.2785304e-06 1.983899e-05 1.99422e-05
2.1235224e-05 2.2471007e-05 2.7189744e-05 3.8252252e-05 3.9101313e-05 2.8666596e-05 1.005247e-05 1.4532311e-05
2.4204514e-06 2.18225e-06 2.2826848e-06 2.247231e-06 2.5771537e-06 4.0098334e-06 4.3254986e-06 4.188574e-06
2.4068624e-06 7.2035195e-06 6.9003175e-07 8.976116e-07 8.236387e-07 7.5694857e-07 1.0156023e-06 3.315144e-06
1.6788591e-06 1.5105787e-06 9.753105e-07 1.2123359e-06 3.2367032e-06 2.4078e-06 2.6322095e-06 2.6552134e-06
3.314262e-06 5.6650265e-06 4.6797054e-06 3.7876773e-06 3.217621e-06 2.3489995e-06 7.2467355e-07 5.8589745e-07
5.614102e-07 5.031098e-07 4.233508e-07 3.810544e-07 5.1332535e-07 8.2663564e-07 8.029821e-07 5.1111857e-07
2.5380536e-06 1.7510811e-06 1.638866e-06 1.7081858e-06 1.5916071e-06 1.5800242e-06 2.940615e-06 2.5373713e-06
2.2071813e-06 1.9256063e-06 3.260923e-05 3.6201902e-05 3.4661618e-05 3.278431e-05 2.8578836e-05 5.3538748e-05
6.100791e-05 6.7154324e-05 5.920657e-05 3.6483652e-05 1.3010574e-05 9.246871e-06 1.1351795e-05 1.316702e-05
1.4989557e-05 1.1745113e-05 1.1813125e-05 1.3388566e-05 1.0032232e-05 5.575774e-06 1.8287217e-06 1.476591e-06
1.428115e-06 1.3875912e-06 1.0136488e-06 1.8319222e-06 3.7073019e-06 3.3389329e-06 2.4617882e-06 1.5411248e-06
1.1221176e-06 9.228002e-07 9.726479e-07 9.3748565e-07 9.013677e-07 1.1957213e-06 3.0416415e-06 1.7688851e-06
1.6467171e-06 7.873513e-07 6.273735e-06 4.5151037e-06 4.4680864e-06 4.6113496e-06 4.9869495e-06 1.3120269e-05

exp_avg f4 [32]
00000000: c214 63bc 24f0 5fba f197 0abc 995b cfba
00000010: 40c6 88bb e762 a13a c109 45bb 4fad 0abb
00000020: 3f18 3cbc 34f7 1d39 0dae c4bb 5c78 aebb
00000030: a3ae ebba c6ed 9fb9 5d0b 93b9 4901 e43a
00000040: f133 08ba df92 4eb8 c694 8bba 2b50 6a39
00000050: e371 b2bb d69f aabc 19d7 663b 0aa3 7ab9
00000060: 8362 afba 5f2c a4bb d05d a4ba a418 72bc
00000070: adad 54bb 50b7 27bb 15fe c3bb c701 c2bc
-0.0138599295 -0.00085425586 -0.008459077 -0.0015820145 -0.004174024 0.00123128 -0.0030065628 -0.002116043
-0.01148039 0.00015064777 -0.006002194 -0.0053244065 -0.0017981123 -0.00030503998 -0.0002804649 0.0017395403
-0.0005195728 -4.925101e-05 -0.0010649196 0.00022345844 -0.0054457053 -0.020828169 0.0035223423 -0.00023902595
-0.0013380799 -0.0050101723 -0.0012540165 -0.014776383 -0.0032452152 -0.002559144 -0.0059812167 -0.023682488

exp_avg_sq f4 [32]
00000000: 5ef6 ab37 18a2 bc36 f073 c637 4065 3937
00000010: f14d bd35 8102 3237 af35 8936 d10c 3137
00000020: 88aa ac37 a1b7 1f35 60a5 c236 6a6e 3037
00000030: 2f10 3136 7925 1837 b98e 9236 10a6 8337
00000040: ad70 3837 2ead 3d36 f59a 4236 c50a 1a35
00000050: e19b 3d36 ffa0 ca38 6210 fb36 9df9 fb35
00000060: 723b 9835 c048 0737 3ae1 ec35 a802 0438
00000070: f7b1 4936 bac8 ef36 4354 9637 1423 a038
2.0499512e-05 5.621707e-06 2.3657427e-05 1.1050433e-05 1.4104281e-06 1.061021e-05 4.0891678e-06 1.0553006e-05
2.0583408e-05 5.949933e-07 5.8009027e-06 1.0516125e-05 2.6384475e-06 9.068631e-06 4.367754e-06 1.5693746e-05
1.0993489e-05 2.8263999e-06 2.899845e-06 5.738514e-07 2.8253928e-06 9.6620985e-05 7.48229e-06 1.8773604e-06
1.1342183e-06 8.0635655e-06 1.764892e-06 3.1473726e-05 3.0054923e-06 7.1461227e-06 1.792063e-05 7.635928e-05

exp_avg f4 [16, 32]
00000000: 0425 733a b5ad 7f3a 1ccf c138 36ca 8a3a
00000010: c984 ac3a 7207 3c3a 30ad 3338 58d6 4639
00000020: 4fe3 c039 7e4a 8738 5721 6438 cb64 1637
00000030: fabf dcb7 271f bb39 d838 543b 51bc 393b
00000040: dcd2 e939 9740 5cb7 a545 d139 f053 9835
00000050: 3ef0 0139 a3af 4c3a 8803 503a fb74 ad38
00000060: bedc abb6 a22e 6c39 3f74 1439 7925 8c3a
00000070: 630f 0839 ba1f 613a 9bc2 443b 2b42 983a
00000080: 38c8 dfbb 1dae 1c3c 350e 083c 2722 3c3b
00000090: c903 c03b 8437 3fba dbad bc3a 184c 5cb8
000000a0: d8bf 31bc f67c 6f3b b578 86bb 6bb2 4ebb
000000b0: 937e 303c 7752 a9bb 9b64 19ba 739e 6bba
000000c0: f34c 2abb 4223 22b8 8fb9 3ebb 1c19 90ba
000000d0: 91cf 9bbb d93d 31bc f002 f4ba 3738 6ebb
000000e0: 5eb2 b63b fd58 93bb f1aa 5b3a a5a2 51bc
000000f0: 3dda 56bb cdaf bdba 7b48 e9bb 9c11 2dbc
00000100: 3ad5 d7bb c2a6 9db8 04e4 ac3b bfe8 083a
00000110: e56b 8e3a 9add d0ba 2b52 faba 08b2 cabb
00000120: 9803 31bc 7dfd 69bb eb13 6dbb 51c7 34bb
00000130: 3482 823a 45da 24bc 8702 3dbb 7db8 0ebb
00000140: 93d1 40bb d972 d7b8 3393 88bb 5a8a 69ba
00000150: 0b93 b3bb 3f89 37bc de14 13bb 138d 0ebc
00000160: ff0d 4f3a a9c6 07bc 8221 d43a 50e3 66bc
00000170: 5bb4 7ebb e073 d7ba 48e1 13bc 9110 42bc
00000180: 0a25 463a f4d1 c8bb 9a7d d8bb 0122 87bb
00000190: c04c 21bb fd13 b1b9 bf09 0aba c93e b9b9
000001a0: 9e88 a63a d59a 11bb 11cd 6e3a ce9e 4e3a
000001b0: 15e1 a3bb 5ca6 2e39 0ce8 17bb 0bfa 22bb
000001c0: 253c 6cb8 a86e e735 6d90 8039 7332 8b39
000001d0: fc33 843a 1ed8 7d3a 2e14 fcb8 cae5 a03a
000001e0: cd60 25bb 1451 20b8 c02a acba e802 693a
000001f0: 73c6 4b3a 4554 e1b9 fdd6 4b3a 15e0 3a3b
00000200: ba3a b5bb 2841 bf3a 3ac9 da3b 5dc2 1e3b
00000210: 7f59 843b c753 e339 06ab 8c38 96a5 9fbb
00000220: 4e07 25bc 1a46 d2ba ea60 88bb 91fb 46bb
00000230: 3816 613b 7689 0dbc 8fa1 e8b9 498f 4a3b
00000240: 9441 34bb 86fe 0fb9 64f7 68bb 48a4 bdba
00000250: ca93 a3bb 0b89 39bc 994c 0dbb 53d6 edbb
00000260: da40 e13a 597c 0bbc 013f dd3a 6d2b 65bc
00000270: 1ee6 4dbb ba09 a6ba beca adbb 87f8 35bc
00000280: 34c9 37bb b3b7 9e3b 7c13 cb3b 1fa7 043b
00000290: f558 963b 2fd1 f439 45c9 c33a 877c fdb9
000002a0: df5f 96bb 1d20 1d3b 602e e6ba 64b0 39ba
000002b0: 6d9b bd3b 475c d9ba 9e53 9bb8 0563 c43a
000002c0: cb24 ccba c7b1 d4b7 3eca 41ba dbab 0fba
000002d0: 2d76 0cbb ea5a 9bbb 1d1a c8b9 227c 83ba
000002e0: 55ee 5b3b 9d8b 1abb 5349 4a3a 2d52 c9bb
000002f0: 7203 96ba 0f80 2bba 110e 15bb d2d8 9cbb
00000300: 6eb6 6037 f415 9a37 a99b 2538 201f 7a38
00000310: daec 75b6 0fbb e6b5 ea43 1438 f9ff 5338
00000320: 301a 8838 79e3 0c38 2e62 33b7 73f0 4c38
00000330: 249f ae36 aa00 6eb7 52cd b738 5219 7db7
00000340: 4f47 4b36 890a 2836 658e 2338 65aa fb30
00000350: 95e0 e0b6 ec4d 81b7 3134 cb36 0bcb 9638
00000360: 067d 02b7 c4cf 3237 7724 d8b6 515a 1db7
00000370: 0971 9537 c0dd 9b37 84e5 6738 d48b b538
00000380: d4fa a43a db26 15bc 7a91 6cbc aa61 29bc
00000390: 7c6b b2bb 837a 77ba bca5 cfba 88ee 8cbb
000003a0: 1d8c d639 21ed 6fbb 822b d238 98f7 b138
000003b0: 8b3f 51bc 5c7f 24bb e5c5 a0bb 3a56 dcbb
000003c0: bfc7 4639 2572 2337 de0e aeba 1d60 9637
000003d0: c996 83b8 e9cd 0f3a 99e3 12bb 5f5a 10bb
000003e0: e582 5cbb 7a98 ceba d185 68bb 3ab1 8b3a
000003f0: 03ba 27b9 ee30 bbba f962 a9b9 9d93 1e3a
0.000927523 0.00097533624 9.241534e-05 0.0010588828 0.0013162132 0.00071727403 4.283822e-05 0.00018962601
0.00036790452 6.451177e-05 5.4390486e-05 8.964164e-06 -2.631544e-05 0.0003569063 0.0032382514 0.0028341005
0.00044598326 -1.312806e-05 0.00039915476 1.1349312e-06 0.00012391896 0.00078081543 0.00079350965 8.271072e-05
-5.121895e-06 0.00022524086 0.00014157685 0.001069232 0.00012975703 0.00085877965 0.003002322 0.0011616399
-0.006829288 0.009562996 0.0083041685 0.002870688 0.005859826 -0.0007294344 0.0014395075 -5.2522955e-05
-0.010848962 0.0036542988 -0.004103745 -0.003153945 0.010772365 -0.0051673013 -0.0005851478 -0.00089881493
-0.0025985807 -3.8656646e-05 -0.00291023 -0.0010993811 -0.0047549685 -0.010817968 -0.0018616598 -0.0036349425
0.0055754622 -0.004496692 0.0008379659 -0.012795125 -0.0032783889 -0.0014471948 -0.007119236 -0.01056328
-0.006586698 -7.5174044e-05 0.005276205 0.000522267 0.0010865895 -0.0015935183 -0.0019097974 -0.0061857738
-0.0108040795 -0.003570407 -0.0036175202 -0.0027584622 0.0009957016 -0.010061805 -0.0028840618 -0.0021777444
-0.002942179 -0.00010273391 -0.004167938 -0.00089088606 -0.0054801754 -0.011202156 -0.0022442858 -0.008700627
0.0007898509 -0.00828711 0.0016184303 -0.014092281 -0.0038864824 -0.0016437732 -0.009025879 -0.01184477
0.000755862 -0.006128544 -0.0066067697 -0.0041239266 -0.0024612397 -0.00033774963 -0.00052657345 -0.00035332728
0.001270551 -0.0022217531 0.0009109537 0.000788194 -0.005001197 0.00016655907 -0.0023179082 -0.0024868276
-5.63228e-05 1.7243046e-06 0.00024521668 0.00026549734 0.0010086293 0.0009683388 -0.00012020055 0.0012275514
-0.00252347 -3.8222483e-05 -0.0013135299 0.00088886777 0.00077734067 -0.0004297813 0.0007775871 0.002851491
-0.0055306824 0.0014591562 0.00667682 0.0024224736 0.004038989 0.00043359233 6.707576e-05 -0.0048720343
-0.010072542 -0.001604262 -0.0041619437 -0.0030362348 0.0034345519 -0.00863873 -0.0004437086 0.0030908159
-0.0027504908 -0.0001373236 -0.0035547847 -0.0014468515 -0.004991983 -0.0113241775 -0.0021560548 -0.0072582155
0.0017185465 -0.0085135335 0.0016879739 -0.013987404 -0.0031417678 -0.0012667694 -0.00530371 -0.011106617
-0.002804351 0.004843676 0.006197391 0.0020241213 0.004588241 0.0004669516 0.0014937302 -0.000483487
-0.0045890654 0.002397544 -0.0017561428 -0.0007083474 0.0057863505 -0.0016583287 -7.406551e-05 0.0014983123
-0.001557493 -2.5355153e-05 -0.0007392502 -0.00054806256 -0.0021432743 -0.0047410624 -0.0003816643 -0.0010031501
0.0033558805 -0.002358175 0.00077166146 -0.0061438293 -0.0011445119 -0.00065422145 -0.002274398 -0.004786589
1.3393916e-05 1.8368453e-05 3.9484035e-05 5.9633632e-05 -3.664571e-06 -1.7190777e-06 3.53492e-05 5.0544713e-05
6.489863e-05 3.359045e-05 -1.0692091e-05 4.8861326e-05 5.2041305e-06 -1.418606e-05 8.764364e-05 -1.50858705e-05
3.0290864e-06 2.5040083e-06 3.8994844e-05 1.8311083e-09 -6.701865e-06 -1.5414284e-05 6.0559473e-06 7.190377e-05
-7.777713e-06 1.0658001e-05 -6.4415467e-06 -9.378958e-06 1.781482e-05 1.85807e-05 5.5288445e-05 8.6567976e-05
0.001258696 -0.009103502 -0.014438981 -0.010338226 -0.005444942 -0.0009440558 -0.0015842239 -0.004300896
0.00040921653 -0.0036609846 0.00010021684 8.4861356e-05 -0.0127714975 -0.0025100326 -0.0049064034 -0.006724146
0.00018957163 9.742133e-06 -0.0013279577 1.792615e-05 -6.274653e-05 0.00054857 -0.002241349 -0.0022026522
-0.0033647355 -0.0015761994 -0.0035480151 0.0010657676 -0.00015995656 -0.001428155 -0.00032307932 0.0006049218

exp_avg_sq f4 [16, 32]
00000000: 0388 5836 e7f6 3436 f2a7 4636 cb08 ba36
00000010: 5c8d ce35 794a e936 b692 a335 4d81 5a36
00000020: b869 5937 3433 2236 7b63 0135 6d43 0135
00000030: 2810 5135 1015 b336 7e54 bb37 a8e2 6537
00000040: bdac c536 541a 7933 e1fd 4336 f8a3 bd33
00000050: d73b 0b35 da24 9d37 1783 b335 0275 5536
00000060: 5350 a234 3007 1136 3214 2c35 3b88 2538
00000070: 6dda 8834 d8eb 0837 ae07 8837 deb2 a436
00000080: 4c40 3237 48c4 5b37 00ba c837 6770 8737
00000090: e714 f136 fd83 8c36 8e8f 2637 0cb1 b337
000000a0: f43d f237 c133 b137 73e1 2636 98f9 8036
000000b0: 6541 df37 b07d fd37 6392 1138 0931 ad37
000000c0: 5218 f736 5b05 aa33 e898 6137 c198 5b35
000000d0: cb8e 8c36 6dfa 3a38 a605 8c36 182f 0b38
000000e0: cab5 da36 3f8e 5037 0155 bf35 d31f 9638
000000f0: 71ba 1f36 7010 0537 e6e7 b437 793d c737
00000100: f793 d336 0bba 2936 cf5e 1037 8949 5937
00000110: 1613 3a36 9f41 2036 88d9 2836 34b9 b036
00000120: ac88 3b37 2dca 6936 f914 5d35 f9af c435
00000130: fc7e 8f36 76bd 0037 f654 dd37 7734 6737
00000140: ba10 7536 5008 0b32 cc4c be36 58f4 6f33
00000150: 2ed6 e035 3929 7437 2d4d 1a36 4bc7 c636
00000160: 9556 4a35 6af1 ad36 c00c 4535 ad68 3238
00000170: c27c 9635 9995 bb36 480a 6537 16f1 3337
00000180: 5695 f533 3a75 3836 ed01 9236 d405 1236
00000190: 5fc7 5135 81d4 f733 77bf 0b35 b32d bb35
000001a0: a1b3 6034 75d3 b335 7468 a733 5c05 4c34
000001b0: 3d45 4836 eca8 b235 4208 f935 cce2 ea35
000001c0: f693 ad33 7d9e b22e 7ed9 2b35 03b6 de32
000001d0: 882c a933 ae01 7334 f8a3 ad34 75f9 c135
000001e0: fa20 1835 54c9 5b35 14f2 7834 27e5 6534
000001f0: 97ed 2934 f423 be34 2465 a335 e283 2635
00000200: 9272 3837 0047 6237 6407 d737 1845 c837
00000210: b10f c936 3055 ce36 e534 0c37 1882 9037
00000220: 718d ef37 a026 5737 0041 1836 9d2e 8f36
00000230: a4fe a037 deee af37 57cc 4138 3232 0838
00000240: 04fe 3537 3740 2933 b23d 5337 ea90 f034
00000250: 1738 8836 2617 4438 2052 ab36 efcf c337
00000260: d1c1 4736 04ff 6737 321c 4736 7d7b ba38
00000270: de1b 5036 5caa 5b37 f250 0138 e17e c037
00000280: c317 b535 f4f3 6b36 2716 e636 792c 5036
00000290: 8476 c935 7487 fd34 0f2e a835 d339 2436
000002a0: ceac 4736 bc35 3636 588e ab34 a666 fe34
000002b0: 35da 8836 ee74 5f36 2aea 9136 46e4 5236
000002c0: 09a5 3335 e36a 7f31 5371 9535 58fe b133
000002d0: 084e 0135 7933 8636 9f15 5035 cfe2 5736
000002e0: 8c92 8f35 7e69 c035 a548 9434 b8ab 0337
000002f0: 280b c334 b92e 7935 501b 3336 0873 3f36
00000300: 3a19 a132 c721 5434 e869 5934 80c2 dc34
00000310: 7c13 8033 4f63 ae33 6712 6c33 d5c7 d733
00000320: 2dc7 3334 21a6 8333 3ab5 6e30 7385 a333
00000330: aeef 9233 076d 7232 fa91 7b35 73bc 8333
00000340: 3816 2733 97fc 0c2e db91 4d34 fa7a 6430
00000350: 0580 1c32 5405 0933 7f31 5a33 a7a9 1034
00000360: 7df3 1032 3071 2d34 2c6c 0533 fb59 d132
00000370: 8ab6 5032 f06b 1234 d60f 8f34 972c 1634
00000380: f102 8136 7e80 3537 42d1 e037 5a09 9a37
00000390: 99d9 0137 3cd1 3d37 2abf 3035 8c7b 0236
000003a0: f403 d936 8e56 1636 3267 7c34 8839 d233
000003b0: 7828 1237 9c96 3e35 48a0 4338 13ac 0938
000003c0: 7f91 9536 1053 8b32 caf9 3b36 695f a533
000003d0: 5259 8234 25e8 f136 96c0 0636 9d8a 8635
000003e0: 7b0d 8b35 c109 1936 de18 5036 ea09 3b38
000003f0: 09ab 6234 8662 5937 e9ab a137 2c53 8136
3.2265677e-06 2.6965806e-06 2.9602056e-06 5.5442556e-06 1.5389337e-06 6.952611e-06 1.2187145e-06 3.2559794e-06
1.29588225e-05 2.4169685e-06 4.820101e-07 4.815436e-07 7.788208e-07 5.3370677e-06 2.2331482e-05 1.3702236e-05
5.891167e-06 5.7998776e-08 2.9205041e-06 8.830824e-08 5.1868614e-07 1.8733019e-05 1.3374691e-06 3.180758e-06
3.0233295e-07 2.1610867e-06 6.410438e-07 3.946594e-05 2.54909e-07 8.161143e-06 1.621604e-05 4.9084038e-06
1.0624597e-05 1.30991175e-05 2.3928471e-05 1.6145596e-05 7.184793e-06 4.1876906e-06 9.927795e-06 2.1420907e-05
2.8877497e-05 2.1124144e-05 2.4867156e-06 3.843754e-06 2.6614123e-05 3.0218478e-05 3.4707027e-05 2.064604e-05
7.364005e-06 7.917216e-08 1.3446646e-05 8.1806144e-07 4.1889484e-06 4.4579083e-05 4.1729827e-06 3.3184042e-05
6.5180693e-06 1.2430885e-05 1.4255348e-06 7.158485e-05 2.380137e-06 7.931245e-06 2.1565658e-05 2.3751274e-05
6.3055154e-06 2.5291254e-06 8.605143e-06 1.2951329e-05 2.772727e-06 2.3880054e-06 2.516057e-06 5.266769e-06
1.117789e-05 3.4837387e-06 8.2359435e-07 1.4654353e-06 4.276515e-06 7.673507e-06 2.6384816e-05 1.3780888e-05
3.651758e-06 8.092755e-09 5.6713816e-06 5.5868753e-08 1.6751635e-06 1.4553131e-05 2.299271e-06 5.9240606e-06
7.537686e-07 5.183906e-06 7.340677e-07 4.2535994e-05 1.121218e-06 5.5904497e-06 1.3651857e-05 1.0725364e-05
1.14358656e-07 2.7486371e-06 4.3513633e-06 2.1759088e-06 7.814869e-07 1.1540488e-07 5.2060153e-07 1.3945886e-06
2.0926974e-07 1.3398081e-06 7.7955434e-08 1.900093e-07 2.9842624e-06 1.3311196e-06 1.8554349e-06 1.7500365e-06
8.082854e-08 8.122656e-11 6.4018957e-07 2.592697e-08 7.877776e-08 2.263175e-07 3.2343064e-07 1.4452222e-06
5.66724e-07 8.187683e-07 2.3184867e-07 2.1410652e-07 1.5825786e-07 3.5416417e-07 1.2173882e-06 6.2031734e-07
1.099393e-05 1.3487181e-05 2.5633439e-05 2.3874032e-05 5.9920935e-06 6.1491955e-06 8.356966e-06 1.7226717e-05
2.8556884e-05 1.2823992e-05 2.26876e-06 4.2671586e-06 1.9192063e-05 2.0972857e-05 4.6205092e-05 3.2471675e-05
1.0847583e-05 3.9406782e-08 1.2590945e-05 4.4808922e-07 4.0596456e-06 4.67516e-05 5.1057577e-06 2.3342638e-05
2.9766127e-06 1.3828048e-05 2.9669723e-06 8.8921726e-05 3.1010636e-06 1.3093082e-05 3.0831383e-05 2.2947266e-05
1.3492466e-06 3.5159728e-06 6.857113e-06 3.1020302e-06 1.501016e-06 4.7223477e-07 1.253038e-06 2.4471562e-06
2.9753896e-06 2.715139e-06 3.19548e-07 4.7385873e-07 4.0785185e-06 3.3297651e-06 4.348597e-06 3.142531e-06
6.6922854e-07 3.7168142e-09 1.1134347e-06 8.2884696e-08 4.8169795e-07 3.9995034e-06 7.75175e-07 3.2169517e-06
1.0696981e-06 1.4335817e-06 2.7620004e-07 7.84819e-06 3.6329698e-07 9.282772e-07 2.6688977e-06 2.8528175e-06
1.8754339e-08 1.9756327e-07 2.0248228e-07 4.111971e-07 5.964009e-08 8.1205705e-08 5.496477e-08 1.0048067e-07
1.6743134e-07 6.1303815e-08 8.6841434e-10 7.614553e-08 6.842252e-08 1.4111044e-08 9.371721e-07 6.1344416e-08
3.8902925e-08 3.205666e-11 1.9145175e-07 8.3120677e-10 9.109503e-09 3.1902644e-08 5.0802097e-08 1.3472764e-07
8.437266e-09 1.6153058e-07 3.1064857e-08 2.437172e-08 1.2148698e-08 1.3636577e-07 2.6647348e-07 1.398606e-07
3.844842e-06 1.0818358e-05 2.6800324e-05 1.8362585e-05 7.739663e-06 1.1313994e-05 6.584329e-07 1.9443423e-06
6.467564e-06 2.2402123e-06 2.3506871e-07 9.789352e-08 8.7117005e-06 7.099968e-07 4.6640896e-05 3.2823602e-05
4.457484e-06 1.6219502e-08 2.8010568e-06 7.700766e-08 2.4279376e-07 7.209385e-06 2.0079656e-06 1.002412e-06
1.036023e-06 2.2804454e-06 3.100889e-06 4.4593507e-05 2.1110112e-07 1.2957147e-05 1.9272748e-05 3.854182e-06

exp_avg f4 [16]
00000000: 3abb 353b 2a88 bebb fe50 89bc 5503 37bb
00000010: 2edf 3fbc 96fb a7ba 6fbc 7338 5142 27bc
00000020: f9db 6fbb ab68 fcbb fa54 13bb 237c 7f3a
00000030: dafa 7cbc a88a 843a b300 c5bb d412 b6ba
0.0027730004 -0.005814572 -0.016762253 -0.002792557 -0.011710925 -0.0012816067 5.8111207e-05 -0.010208682
-0.003659962 -0.007702907 -0.002248107 0.0009745976 -0.015440667 0.0010112124 -0.0060120462 -0.0013891109

exp_avg_sq f4 [16]
00000000: a901 3f38 0661 ac38 8e41 1e38 6cb7 6036
00000010: b03b be38 48e6 0537 6c0d fb34 7825 1a38
00000020: 9d1f 1e37 4e22 2138 e9b7 3739 2d61 5039
00000030: 88bf 5839 5558 c038 18ab a837 60fd aa38
4.5539495e-05 8.219671e-05 3.7731188e-05 3.3485367e-06 9.071024e-05 7.981034e-06 4.676216e-07 3.6751357e-05
9.424894e-06 3.841734e-05 0.00017520752 0.00019872627 0.00020670716 9.1717266e-05 2.0106832e-05 8.1534265e-05

exp_avg f4 [1, 16]
00000000: ae9d 9abb e418 3ebd 7810 47bd 674d 1e3d
00000010: 4225 26bd 51f9 4fbd d9f2 b4b8 b3cc 503c
00000020: a263 36bc 59ac 19bd 930d 263d 2df0 0ebd
00000030: ad22 55bd 5613 30bc 435b c23c 25bb 913c
-0.004718504 -0.046410456 -0.04859969 0.038648035 -0.040562876 -0.050774876 -8.628303e-05 0.012744117
-0.011132153 -0.03751788 0.04054029 -0.03489702 -0.052035023 -0.010746798 0.023725158 0.017789433

exp_avg_sq f4 [1, 16]
00000000: f36e 0039 cfa2 073a a65d 5b39 6c4a 1a39
00000010: 5fbf c039 6cfc 3a3a 083e 0a35 225d 1338
00000020: e811 6738 2499 4639 78da 333a 2d33 9b3a
00000030: 1692 053a a677 3639 e421 ba38 1e4a 8739
0.00012248363 0.00051741017 0.00020920354 0.00014714309 0.00036763676 0.00071329507 5.1499273e-07 3.5134268e-05
5.509137e-05 0.00018939801 0.00068608625 0.0011840813 0.0005095316 0.00017401445 8.875484e-05 0.00025804428
