tasks/BinaryRainfallPrediction/exp/exp00001/run00001/checkpoints/checkpoint_latest.pth (torch, 19302 bytes, 15 tensors)

model.0.weight f4 [32, 10]
-0.15092836 -0.1975205 0.019812163 -0.12360799 0.035073716 0.0950951 0.3872678 -0.31528863
0.15556842 0.064494506 0.25114325 0.103082284 -0.02784977 -0.21025008 -0.15381789 0.1412
-0.554145 0.16854715 -0.14710826 -0.1624127 -0.03739611 -0.17863557 -0.036675382 -0.13352995
-0.19328022 -0.04794185 -0.47127157 0.28727403 0.07133652 -0.15738766 -0.15437248 -0.16570465
-0.004412082 -0.0008952882 -0.18911617 -0.11878431 0.07926584 -0.10909446 -0.35948408 -0.011695796
0.24338368 0.12608644 -0.16211037 -0.2877141 0.037909158 -0.04521994 -0.4661686 0.20670652
0.24655354 0.35364863 0.057450656 -0.08713442 -0.19703884 -0.266569 0.1746173 0.16230367
-0.11069796 0.10965602 -0.23414412 0.07230221 0.15381518 0.20616974 0.23105514 0.04096647
-0.09607849 0.022299452 -0.28005823 -0.30236644 0.16653311 -0.0064416565 0.16607238 0.0754409
0.24635458 -0.26137456 0.30895787 0.3110111 0.14903884 0.06809322 0.1335406 0.11508668
-0.23618212 0.016641553 -0.31885257 0.25515652 0.13825615 0.44223252 0.46282083 -0.31169102
0.18835686 0.20743486 -0.24976106 0.2172142 0.10639232 0.12697011 0.09630533 -0.033738844
-0.31158555 -0.24882808 0.014054924 -0.18327664 -0.27837545 0.07227538 0.07755247 -0.18654199
0.11396311 0.14809997 0.09188253 -0.19180568 0.04756938 -0.040807765 -0.16952279 -0.24034804
0.24492905 0.0034643137 0.3221219 -0.0511641 0.13929443 -0.22218205 0.3300034 0.22549023
-0.14154309 -0.028179204 -0.21437554 -0.15107958 -0.13913253 -0.14504503 -0.39357352 0.25501963
0.19558594 -0.007963918 -0.21076287 -0.33960098 0.15411313 -0.24548253 0.28342158 0.30153248
0.23150717 -0.114108965 0.14558269 -0.14151941 -0.07050476 -0.26717886 -0.21458465 0.09037182
-0.20551252 -0.14438751 0.072990075 -0.3121458 0.030925311 0.17775203 0.105733104 -0.22860634
-0.065407954 0.007486129 -0.23339835 0.16816066 0.117350124 -0.06884705 0.06638799 0.015065939
-0.07847687 -0.15194264 -0.13358784 0.21683565 0.039775714 -0.1411702 0.47118804 -0.09969704
-0.1440818 0.21845947 0.066791385 -0.0032420943 -0.020708688 -0.01982399 0.1596878 0.09109061
0.11692226 0.036256902 0.023929896 -0.005935188 0.0070162676 -0.0278538 0.20406747 -0.025466602
-0.008011933 -0.117018044 0.33185166 -0.04108209 -0.037326366 0.21827947 -0.28539875 0.027494362
0.2129905 -0.28692526 0.14247319 -0.013014279 0.13608673 0.10065612 -0.10106402 -0.0442909
-0.017487735 0.2543736 0.21112151 -0.02962507 0.29646334 0.10575594 0.19600683 -0.19876933
-0.052625805 -0.123094454 -0.09542363 -0.09069403 0.2504803 0.05137604 0.122927725 0.2389033
0.24710357 -0.2773798 0.24137504 0.27793312 0.29099876 0.3046917 -0.19152418 -0.031139906
-0.13655405 -0.056085255 0.31908867 -0.011230198 0.09744218 -0.2750192 -0.07932879 0.2034712
0.059717577 -0.2007292 0.24715674 -0.18627788 0.10796709 -0.3437005 0.09839987 -0.10205743
-0.10624777 0.13184872 -0.22152406 0.056777213 -0.170861 -0.24392012 -0.46516854 -0.043119375
0.07297431 -0.033282146 -0.0073078023 -0.06308502 0.27870935 -0.21760349 0.37015277 0.28558397
00000000: f78c 1abe d042 4abe 1e4d a23c 3026 fdbd
00000010: 75a9 0f3d 38c1 c23d f747 c63e 836d a1be
00000020: 544d 1f3e b215 843d d995 803e ce1c d33d
00000030: 3325 e4bc cc4b 57be 7082 1dbe bc96 103e
00000040: 72dc 0dbf a097 2c3e 8ca3 16be 844f 26be
00000050: aa2c 19bd 3eec 36be ed38 16bd 13bc 08be
00000060: 40eb 45be ac5e 44bd 824a f1be 9515 933e
00000070: e218 923d 3b2a 21be d213 1ebe 7bae 29be
00000080: 3a93 90bb c6b1 6aba aba7 41be 3045 f3bd
00000090: 2156 a23d eb6c dfbd 4c0e b8be b99f 3fbc
000000a0: 9239 793e ce1c 013e 4300 26be 434f 93be
000000b0: a246 1b3d 8b38 39bd a7ad eebe e0aa 533e
000000c0: 8878 7c3e 6f11 b53e 6151 6b3d 8873 b2bd
000000d0: 8dc4 49be bb7b 88be e1ce 323e ef32 263e
000000e0: 9db5 e2bd 5693 e03d 7ac3 6fbe 2e13 943d
000000f0: ba81 1d3e 291e 533e b899 6c3e 75cc 273d
00000100: cdc4 c4bd 57ad b63c cb63 8fbe c6cf 9abe
00000110: a887 2a3e 8814 d3bb e10e 2a3e c280 9a3d
00000120: 6044 7c3e e3d2 85be ba2f 9e3e d93c 9f3e
00000130: a39d 183e 7574 8b3d debe 083e 91b2 eb3d
00000140: bad9 71be de53 883c a540 a3be e0a3 823e
00000150: 0593 0d3e 4d6c e23e daf6 ec3e f795 9fbe
00000160: 9fe0 403e ce69 543e 5dc1 7fbe 666d 5e3e
00000170: 37e4 d93d 7404 023e bb3b c53d be31 0abd
00000180: 2488 9fbe cacc 7ebe a046 663c dfac 3bbe
00000190: 3a87 8ebe 1d05 943d d4d3 9e3d dd04 3fbe
000001a0: 7e65 e93d 85a7 173e e82c bc3d b568 44be
000001b0: 1cd8 423d 0b26 27bd 6297 2dbe cc1d 76be
000001c0: aece 7a3e 8a09 633b 29ed a43e 7391 51bd
000001d0: 33a3 0e3e b183 63be 35f6 a83e e9e6 663e
000001e0: acf0 10be 13d8 e6bc 4385 5bbe 9bb4 1abe
000001f0: c278 0ebe af86 14be 7882 c9be ef91 823e
00000200: ae47 483e 187b 02bc 39d2 57be 2ee0 adbe
00000210: d5cf 1d3e c65f 7bbe a21c 913e 7762 9a3e
00000220: 3710 6d3e f6b1 e9bd a113 153e 77ea 10be
00000230: cd64 90bd abcb 88be 14bc 5bbe dc14 b93d
00000240: e071 52be 52da 13be d27b 953d 93d1 9fbe
00000250: 1457 fd3c a104 363e 998a d83d c817 6abe
00000260: 9bf4 85bd 344e f53b faff 6ebe 4f32 2c3e
00000270: 4355 f03d afff 8cbd 6df6 873d 21d7 763c
00000280: 7bb8 a0bd da96 1bbe 40cb 08be 2a0a 5e3e
00000290: dceb 223d ec8e 10be 8f3f f13e f62d ccbd
000002a0: 2e8a 13be d7b3 5f3e ecc9 883d 5179 54bb
000002b0: 44a5 a9bc ec65 a2bc 3385 233e b78d ba3d
000002c0: f074 ef3d 1e82 143d a108 c43c f77b c2bb
000002d0: b8e8 e53b a72d e4bc 10f7 503e 569f d0bc
000002e0: 7c44 03bc 28a7 efbd 76e8 a93e b245 28bd
000002f0: 88e3 18bd a784 5f3e c91f 92be db3b e13c
00000300: 2e1a 5a3e dee7 92be 7ee4 113e d839 55bc
00000310: 525a 0b3e cc24 ce3d a7fa cebd 606a 35bd
00000320: 7042 8fbc 423d 823e 3d30 583e 46b0 f2bc
00000330: 0bca 973e 9296 d83d 04b6 483e 308a 4bbe
00000340: 288e 57bd f218 fcbd 776d c3bd cbbd b9bd
00000350: f43e 803e af6f 523d 88c1 fb3d 11a3 743e
00000360: b808 7d3e ba04 8ebe 052b 773e 404d 8e3e
00000370: cafd 943e 8d00 9c3e ea1e 44be 1e19 ffbc
00000380: d3d4 0bbe a7b9 65bd 975f a33e ddfe 37bc
00000390: c48f c73d 51cf 8cbe 2277 a2bd c15a 503e
000003a0: 6b9a 743d f58b 4dbe a816 7d3e a1bf 3ebe
000003b0: da1d dd3d 83f9 afbe df85 c93d 7c03 d1bd
000003c0: 6e98 d9bd 5a03 073e 34d7 62be 398f 683d
000003d0: 30f6 2ebe 32c6 79be 922a eebe f19d 30bd
000003e0: 8e73 953d dc52 08bd 4a76 efbb b832 81bd
000003f0: feb2 8e3e 73d3 5ebe aa84 bd3e 1038 923e

model.0.bias f4 [32]
0.041680485 -0.14377435 -0.06240593 0.014221285 -0.24372451 -0.28058216 0.09448667 0.29188064
0.08237069 -0.05322347 0.03412756 -0.21500501 0.09910646 0.18517114 0.026696019 -0.13456295
0.09767095 -0.24519324 0.2993986 -0.24872403 0.03749555 0.35380027 0.18941893 0.30441687
-0.10834064 0.40830722 -0.31137893 0.30169645 -0.017897006 0.12447951 0.28358018 0.40296295
00000000: 28b9 2a3d 9539 13be 5c9d 7fbd 6400 693c
00000010: eb92 79be 77a8 8fbe 3a82 c13d 6171 953e
00000020: f7b1 a83d da00 5abd 57c9 0b3d 462a 5cbe
00000030: 54f8 ca3d 819d 3d3e 9cb1 da3c dfca 09be
00000040: b507 c83d f013 7bbe c64a 993e 83b1 7ebe
00000050: ef94 193d 4f25 b53e 09f7 413e 87dc 9b3e
00000060: b3e1 ddbd a50d d13e 0f6d 9fbe f577 9a3e
00000070: be9c 92bc 1def fe3d 6c31 913e 2951 ce3e

model.3.weight f4 [16, 32]
-0.117865615 0.007301591 -0.13924378 -0.19320339 0.1648675 0.07357469 -0.13760363 0.0073783244
0.057852276 -0.026474 0.0506748 -0.08474077 -0.095219165 0.05572066 0.119915016 0.049629115
-0.013748737 -0.046476185 -0.10845197 -0.00943147 -0.018405184 -0.005985602 0.09867087 -0.15408917
-0.08589315 -0.14642975 -0.088125646 -0.100309625 -0.13117331 0.0695462 0.021089494 0.0020756272
0.052310307 -0.06241713 -0.08281136 0.046289526 -0.08801278 0.007863314 -0.04941769 0.1520253
0.22391553 0.054936912 0.19257507 -0.038435433 0.0007634431 0.10229854 0.12644032 0.010047598
-0.014970803 0.0022331749 0.083588995 0.07026453 0.06496718 0.19326311 -0.10294726 0.052680224
-0.0038567504 0.24421076 -0.1084806 0.10659081 -0.044810683 0.15919666 0.16500446 0.20706454
0.29761356 -0.05343351 0.010538532 -0.09313996 -0.25483742 -9.513863e-05 0.17969379 0.04895252
0.18169121 0.06883057 0.073097594 0.27006814 -0.068725556 0.008327472 0.20608999 0.0026341951
0.2821498 0.04402971 0.05977057 -0.05217315 0.17740001 -0.036104288 0.117727205 0.014000888
-0.1171692 0.11639651 -0.12887251 0.24878669 -0.0014155302 0.15600501 0.12135139 0.17146547
-0.031011565 0.2570788 0.2814288 0.04128971 0.32872772 -0.063829854 0.019789979 -0.036350414
-0.09181759 0.0747912 -0.030353038 0.06677027 0.26477033 -0.123871334 0.110529676 -0.012155022
-0.116806634 -0.00050071033 0.04905876 -0.16035257 -0.2259579 -0.06235901 -0.12160587 0.044122584
0.18556853 0.007560938 0.19751233 -0.09688643 -0.104525566 0.12788762 -0.0050734477 -0.14752644
0.2497229 -0.13618606 -0.042425036 0.15175639 -0.17894407 0.058391236 0.17789878 0.025237678
0.07706991 0.044599213 0.11646013 0.24707706 -0.0061734915 0.00028205742 0.025120541 0.008434497
0.2573706 -0.094067976 0.14706838 -0.008706313 0.022763286 0.12885931 -0.081982106 0.020941706
-0.085392654 0.19912192 0.020762162 0.19096832 0.14891939 0.011646436 0.23294371 0.13107032
0.19161716 -0.11312785 -0.0707144 -0.008518321 -0.151106 -0.050687112 0.05863712 -0.08719035
0.24676076 -0.023928115 0.16235061 0.16143471 -0.140283 0.045449242 -0.043913364 0.1605458
0.22958322 0.0050839796 0.060038242 -0.03765121 0.12097264 0.2567743 -0.12600952 0.26696718
0.008484827 0.085172996 -0.07208556 0.14650653 0.07075394 0.31449446 0.14357041 0.06476813
-0.16181365 0.24299179 0.111444205 0.20406167 0.0835837 0.15510406 0.13133693 -0.01815808
-0.004955271 0.02369743 -0.26680827 -0.012171537 0.09459057 -0.08827618 0.17413515 -0.052598912
-0.16089469 -2.5608656e-15 -0.0398899 -0.14014755 -0.10795284 -0.15993857 -0.20294654 -0.05323102
0.11529601 -0.1372845 0.20631674 -0.10707555 -0.05364369 -0.1239897 -0.003421236 -0.00021573615
0.0029448415 0.053984743 0.1517327 0.12521519 0.1927597 0.0853725 -0.061832614 0.062468078
-0.081981815 0.08631939 0.001314163 -0.14032228 0.1510742 -0.14345765 0.14183617 0.101594314
-0.1220649 0.006678799 -0.04497329 -0.088803425 -0.005176202 -0.07745711 -0.1478721 -0.17797534
0.2883876 -0.054104306 0.24119504 -0.056388088 -0.1963763 -0.013836611 -0.11812637 -0.056150112
00000000: 8763 f1bd 2f42 ef3b ec95 0ebe 1cd7 45be
00000010: 07d3 283e 54ae 963d f7e7 0cbe dfc5 f13b
00000020: 82f6 6c3d 01e0 d8bc 6190 4f3d 928c adbd
00000030: 4402 c3bd 593b 643d 0196 f53d e647 4b3d
00000040: 6242 61bc d05d 3ebd 111c debd 7486 1abc
00000050: 78c6 96bc de22 c4bb f413 ca3d 8dc9 1dbe
00000060: bfe8 afbd aef1 15be 387b b4bd 226f cdbd
00000070: 4c52 06be 3d6e 8e3d e0c3 ac3c 3f07 083b
00000080: 5543 563d 1ba9 7fbd 0199 a9bd 169a 3d3d
00000090: 0b40 b4bd 21d5 003c 346a 4abd 85ac 1b3e
000000a0: 1d4a 653e 8705 613d 6632 453e 796e 1dbd
000000b0: cd21 483a e681 d13d 9279 013e ae9e 243c
000000c0: 1948 75bc 755a 123b b530 ab3d dae6 8f3d
000000d0: 830d 853d c4e6 453e 03d6 d2bd 38c7 573d
000000e0: 89c1 7cbb 6312 7a3e 142b debd 484c da3d
000000f0: 688b 37bd 7304 233e eef6 283e ba08 543e
00000100: ce60 983e 19dd 5abd cfa9 2c3c 2ac0 bebd
00000110: 0d7a 82be 2a85 c7b8 a601 383e 7082 483d
00000120: 430d 3a3e 0bf7 8c3d 31b4 953d 5f46 8a3e
00000130: fcbf 8cbd f36f 083c 4109 533e 76a2 2c3b
00000140: f075 903e 7f58 343d fcd1 743d 83b3 55bd
00000150: 59a8 353e 17e2 13bd f61a f13d fb63 653c
00000160: 68f6 efbd 4b61 ee3d 28f7 03be f0c1 7e3e
00000170: 5089 b9ba c7bf 1f3e 1487 f83d a594 2f3e
00000180: f70b febc d59f 833e 7017 903e 661f 293d
00000190: 004f a83e 3ab9 82bd 981e a23c 2ce4 14bd
000001a0: dc0a bcbd 212c 993d efa6 f8bc dabe 883d
000001b0: fa8f 873e 41b0 fdbd 625d e23d db25 47bc
000001c0: 5138 efbd 1a42 03ba d7f1 483d 7733 24be
000001d0: 8261 67be 296c 7fbd 800c f9bd e2b9 343d
000001e0: ad05 3e3e bfc1 f73b ac40 4a3e 656c c6bd
000001f0: 8011 d6bd f9f4 023e 2a3f a6bb 2c11 17be
00000200: 5cb7 7f3e 5c74 0bbe e0c5 2dbd 0766 1b3e
00000210: 1d3d 37be a62b 6f3d 192b 363e 3fbf ce3c
00000220: d4d6 9d3d aaad 363d a682 ee3d c501 7d3e
00000230: 004b cabb 1be1 9339 98c9 cd3c d830 0a3c
00000240: 14c6 833e b6a6 c0bd 1899 163e eca4 0ebc
00000250: 127a ba3c b2f3 033e 3ce6 a7bd f18d ab3c
00000260: 58e2 aebd 9ee6 4b3e 6915 aa3c 338d 433e
00000270: 537e 183e b1d0 3e3c cc88 6e3e 4c37 063e
00000280: 4a37 443e 93af e7bd b6d2 90bd 6e90 0bbc
00000290: 88bb 1abe 4a9d 4fbd 7a2d 703d db90 b2bd
000002a0: daae 7c3e e504 c4bc 3d3f 263e 244f 253e
000002b0: 59a6 0fbe fc28 3a3d 80de 33bd 1e66 243e
000002c0: dd17 6b3e 8397 a63b a9ea 753d 2838 1abd
000002d0: 81c0 f73d ec77 833e a408 01be ecaf 883e
000002e0: f203 0b3c 2e6f ae3d 98a1 93bd cf05 163e
000002f0: 71e7 903d 6b05 a13e 1f04 133e 27a5 843d
00000300: 7ab2 25be d7d2 783e dc3c e43d 8bf5 503e
00000310: ee2d ab3d 99d3 1e3e 307d 063e 41c0 94bc
00000320: d35f a2bb 1d21 c23c 189b 88be 206b 47bc
00000330: b3b8 c13d 24ca b4bd 7c50 323e f571 57bd
00000340: 94c1 24be a287 38a7 9763 23bd d782 0fbe
00000350: 6116 ddbd f0c6 23be 38d1 4fbe c508 5abd
00000360: 5120 ec3d 4f94 0cbe b244 533e 6d4a dbbd
00000370: 7cb9 5bbd 50ee fdbd d136 60bb 3b37 62b9
00000380: 3efe 403b 1b1f 5d3d d15f 1b3e 6938 003e
00000390: cc62 453e c7d7 ae3d 3244 7dbd 87de 7f3d
000003a0: 15e6 a7bd 38c8 b03d fe3f ac3a a5b0 0fbe
000003b0: 32b3 1a3e 90e6 12be 803d 113e ae10 d03d
000003c0: 2afd f9bd d4d9 da3b ea35 38bd 92de b5bd
000003d0: 219d a9bb d5a1 9ebd c96b 17be 2b3f 36be
000003e0: 8aa7 933e 7a9c 5dbd d5fb 763e 32f7 66bd
000003f0: de16 49be f4b2 62bc 3dec f1bd a9fd 65bd

model.3.bias f4 [16]
-0.06048422 0.04241922 0.01716593 -0.105172954 0.049180076 0.24217947 -0.048797205 -0.024260495
0.0061728153 0.077902794 0.05456512 0.080132194 0.11427976 -0.0038040376 0.12029691 0.07291759
00000000: 4dbe 77bd c7bf 2d3d 909f 8c3c eb64 d7bd
00000010: 0c71 493d e5fd 773e 94df 47bd f2bd c6bc
00000020: 5445 ca3b 808b 9f3d ad7f 5f3d 591c a43d
00000030: 820b ea3d 294d 79bb 3a5e f63d d155 953d

model.6.weight f4 [1, 16]
-0.12462251 0.23756471 0.25660565 -0.18347105 0.2851767 0.16825126 -0.25152746 -0.34561145
0.22164744 0.24734445 -0.27605832 0.27478263 0.33816168 0.2824361 -0.24744308 -0.25108543
00000000: 163a ffbd 2a44 733e d161 833e d6df 3bbe
00000010: ae02 923e 0f4a 2c3e 35c8 80be fcf3 b0be
00000020: 8cf7 623e dd47 7d3e 8457 8dbe 4fb0 8c3e
00000030: 8723 ad3e 779b 903e b861 7dbe 458e 80be

exp_avg f4 [32, 10]
0.0005645872 0.0025241636 0.0019250739 0.001604785 0.0035069298 0.0008680503 -0.00044380844 -0.0015778543
-0.0019847716 0.0098716505 0.00064359227 0.0014640397 0.00063943985 0.00060163153 0.0019114132 -0.004131553
-0.0072387 0.008044303 -0.0030228405 -0.008000298 0.00752768 -0.004605842 -0.004758109 -0.005375906
-0.0018485344 0.002324837 -0.0010165119 -0.00023939535 -0.007096549 -0.0031465427 0.00040691544 0.0013510721
0.0013643615 0.0012051439 0.0020412898 -0.0017529867 -0.0051059444 0.0026524742 -0.003983119 -0.0034931581
0.00094125775 -0.0042401534 -0.003431507 -0.0030718136 -0.0044281003 -0.005111229 -0.0036404126 0.007162962
-0.0022389027 -0.012075645 0.00018796827 -9.549656e-05 -0.00012016914 -0.00015122982 9.710135e-05 0.00047023818
0.00062422076 -0.00094542734 -0.00011784682 0.0011231962 0.0010543583 -0.00032847465 -0.00012980246 -0.00013229343
0.00039965476 -5.5328295e-05 -0.002635164 0.0017868392 -0.0032370444 -0.0042592827 0.00094732584 0.0012716661
0.0013461122 0.0017347232 0.0014196944 -0.0014677402 0.0015295882 -0.005881007 -0.0007913915 0.00509295
-0.0013942996 0.0014995243 0.0020523784 0.0022675875 0.0013168989 0.00025443712 -0.0016579125 -0.0027749594
0.0009534925 -0.002937629 -0.0014139034 0.0016466836 0.0015001179 0.0016226663 0.0015720652 -0.002210976
-0.0028868879 0.0024535933 -0.0009095001 -0.002623904 -0.002640957 0.001491609 0.0014013965 0.0017560608
-0.00023097068 0.00045864956 -0.0010473372 -0.0022736555 -0.0013547855 -0.0029207733 0.0069618043 -0.0027050886
-0.003738934 -0.0035234666 -0.0029482397 0.00078828353 0.0029330049 -0.009378044 -0.0054252907 0.015038768
0.0029196334 -0.0035501902 -0.00360312 -0.003217104 -0.0029109297 0.00041780542 0.0028974346 -0.001841507
-0.00087763474 -0.0015634103 0.00035781437 -0.0005207947 -0.00020066931 0.00048736754 0.00022573632 0.00031891442
0.0001257404 -0.002990727 -0.0018471968 0.00024238272 0.0013843552 -0.0005190823 -0.0006711006 -0.00061668846
-0.00015476994 8.474109e-05 0.001737342 -0.0025067644 -0.00090544624 0.0042338106 0.00071936613 0.0005681559
0.0005942996 0.00052275887 0.0018623215 -0.00025910165 0.00045509497 -0.0026646727 -0.0009760606 0.005551281
-0.0012327199 0.003158175 0.0034688194 0.0034834202 0.0036317422 0.000365326 -0.001505252 -0.000502143
-0.0015278207 0.00091824 -1.8286659e-05 1.0521566e-05 8.935786e-06 8.682702e-06 2.9175273e-05 7.123769e-05
3.5174748e-05 -7.1254003e-06 -3.017825e-05 3.1740117e-05 -0.002682721 0.0032893866 0.0032650523 0.0031554818
0.0030905383 0.00017846856 -0.0014975917 0.00025220137 0.00042474733 0.0008365125 0.00025269677 5.1293437e-06
0.00016905551 -0.00017195682 -0.0004837848 0.00092874817 0.0008987531 -7.610995e-05 -0.0012749981 -0.00041096035
-0.0009916031 0.0011595669 0.0015549843 0.0019521359 0.00021980525 0.0006582322 0.0008973633 -0.0022749174
-0.001907682 -0.0005420602 0.0023913372 0.004197005 0.004154709 0.00469899 0.0041495143 0.0018659601
0.00059614785 -0.006406925 -0.0030031584 0.008873935 -0.0026947143 0.004063346 0.0041943896 0.0044226563
0.0032411972 -0.0020864648 -0.00404229 0.0022867874 0.0010473802 -0.0021560525 -0.0006049449 0.003177957
0.0031304047 0.0031796566 0.0023022897 -0.00093255943 -0.0020325917 0.0015791272 -0.00056862854 0.00076721224
0.002583323 -0.0020496785 -0.0024057245 -0.0024179919 0.0001144092 -0.0023916948 -0.0043622483 0.001060835
-0.0043955245 -0.0046366625 -0.0020664032 0.0030631307 0.0049610524 0.0050065587 0.0033052969 -0.000952574
00000000: ce00 143a 706c 253b c352 fc3a a657 d23a
00000010: 85d4 653b df8d 633a f6ae e8b9 01d0 ceba
00000020: f112 02bb b4bc 213c bfb6 283a 05e5 bf3a
00000030: 15a0 273a cfb6 1d3a 6288 fa3a fb61 87bb
00000040: 9e32 edbb 41cc 033c d91a 46bb af13 03bc
00000050: c2aa f63b 9aec 96bb e9e9 9bbb 5e28 b0bb
00000060: 864a f2ba 4b5c 183b 7b3c 85ba 3306 7bb9
00000070: 2b8a e8bb 3a36 4ebb 4457 d539 7516 b13a
00000080: 60d4 b23a ebf5 9d3a 29c7 053b 79c4 e5ba
00000090: c44f a7bb 22d5 2d3b d384 82bb 78ed 64bb
000000a0: bdbe 763a fcf0 8abb 22e3 60bb 7b50 49bb
000000b0: 9919 91bb 197c a7bb fd93 6ebb 48b7 ea3b
000000c0: 8eba 12bb edd8 45bc 5919 4539 5345 c8b8
000000d0: 5103 fcb8 7293 1eb9 e4a2 cb38 4d8a f639
000000e0: bfa2 233a 8ed6 77ba 8824 f7b8 3638 933a
000000f0: 6532 8a3a 1f37 acb9 951b 08b9 3fb8 0ab9
00000100: c188 d139 4e10 68b8 b7b2 2cbb 6034 ea3a
00000110: 9824 54bb 7491 8bbb f655 783a 09ae a63a
00000120: 0870 b03a a75f e33a 0a15 ba3a 3061 c0ba
00000130: 777c c83a 76b5 c0bb 6275 4fba c3e2 a63b
00000140: eec0 b6ba b08b c43a 3281 063b ce9b 143b
00000150: cb9b ac3a f965 8539 504e d9ba 18dc 35bb
00000160: ccf3 793a 3c85 40bb ba52 b9ba 88d5 d73a
00000170: 9b9f c43a a5af d43a c10d ce3a 06e6 10bb
00000180: f131 3dbb 77cc 203b 856b 6eba cef5 2bbb
00000190: e813 2dbb 1882 c33a 10af b73a 9f2b e63a
000001a0: b830 72b9 e776 f039 ce46 89ba 9c01 15bb
000001b0: 0f93 b1ba 726a 3fbb d91f e43b db47 31bb
000001c0: e708 75bb f6e9 66bb 4137 41bb d0a4 4e3a
000001d0: a837 403b 5ea6 19bc a3c6 b1bb 2a65 763c
000001e0: 5257 3f3b 4faa 68bb 5322 6cbb 0cd6 52bb
000001f0: 4cc5 3ebb e50c db39 e3e2 3d3b b95e f1ba
00000200: 1211 66ba 58eb ccba 0899 bb39 f185 08ba
00000210: c26a 52b9 5d85 ff39 a2b3 6c39 f833 a739
00000220: 2ed9 0339 1300 44bb a41d f2ba 1e28 7e39
00000230: 4173 b53a 0613 08ba cdec 2fba 43a9 21ba
00000240: bd49 22b9 07b7 b138 86b7 e33a 8748 24bb
00000250: 785b 6dba c7bb 8a3b d893 3c3a 4cf0 143a
00000260: c5ca 1b3a c109 093a 2419 f43a 09d8 87b9
00000270: d099 ee39 caa1 2ebb 51de 7fba 85e7 b53b
00000280: 3793 a1ba 62f9 4e3b 2255 633b 184a 643b
00000290: 8602 6e3b 3a89 bf39 e04b c5ba 3fa2 03ba
000002a0: 2841 c8ba 0bb6 703a 4d66 99b7 c885 3037
000002b0: e9ea 1537 ecab 1137 6cbd f437 7265 9538
000002c0: 9988 1338 b916 efb6 4c27 fdb7 b120 0538
000002d0: 97d0 2fbb c092 573b 7dfa 553b 33cc 4e3b
000002e0: a18a 4a3b 4a23 3b39 d74a c4ba e539 8439
000002f0: 9fb0 de39 6749 5b3a 637c 8439 ba1c ac36
00000300: 7e44 3139 4f4f 34b9 7fa4 fdb9 3c77 733a
00000310: 4d9a 6b3a 389d 9fb8 d61d a7ba 2a76 d7b9
00000320: aef8 81ba 9cfc 973a 9dd0 cb3a d0de ff3a
00000330: 867b 6639 378d 2c3a 083d 6b3a c816 15bb
00000340: 300b faba 0b19 0eba fbb7 1c3b 0887 893b
00000350: 3a24 883b fcf9 993b a6f8 873b 3b93 f43a
00000360: ce46 1c3a 2ff1 d1bb a3d0 44bb fb63 113c
00000370: ce99 30bb d125 853b 1771 893b eeeb 903b
00000380: 446a 543b 12bd 08bb 3075 84bb eddd 153b
00000390: 3f48 893a 8f4c 0dbb 2a95 1eba 4545 503b
000003a0: 7a27 4d3b c961 503b 03e2 163b 0177 74ba
000003b0: 3b35 05bb b7fa ce3a 0410 15ba be1e 493a
000003c0: f84c 293b e653 06bb 5ca9 1dbb 2c77 1ebb
000003d0: f9ee ef38 fbbd 1cbb 31f1 8ebb b70b 8b3a
000003e0: 5508 90bb 25ef 97bb 7e6c 07bb cebe 483b
000003f0: 5390 a23b 0f0e a43b ae9d 583b 29b6 79ba

exp_avg_sq f4 [32, 10]
0.0006415784 0.00060400524 0.0006261709 0.0006164832 0.0006952683 0.0004270878 0.00015153148 0.000260178
0.00047450163 0.0005915846 0.0003527448 0.00029731687 0.0002994436 0.00029657746 0.00031462152 0.0002577175
0.00042383408 0.00041172616 0.00024412737 0.00023402242 0.0006910674 0.00055770006 0.00055709097 0.00053632923
0.00055073 0.0005149455 0.00077575597 0.0008503314 0.0005432154 0.00046816247 9.314778e-05 5.8963582e-05
6.233103e-05 6.249001e-05 7.117016e-05 9.733147e-05 8.760572e-05 8.13375e-05 4.46062e-05 7.969239e-05
0.0007241942 0.0006744878 0.00069860765 0.00067905703 0.00072151405 0.0005681361 0.0006706157 0.0007745602
0.00056543876 0.000782336 1.7262768e-05 1.1432693e-05 1.2866544e-05 1.3166249e-05 1.6396045e-05 1.0645953e-05
1.1110734e-05 9.420654e-06 5.9496424e-06 1.1686475e-05 3.7558566e-05 3.226871e-05 2.964569e-05 2.8800387e-05
2.2443413e-05 3.2147844e-05 8.078126e-05 7.02939e-05 4.508284e-05 3.7458532e-05 0.00010804098 0.000102939885
9.731702e-05 9.405833e-05 7.764977e-05 5.4101874e-05 5.280747e-05 0.00012258506 0.00014488507 0.00011269761
0.000438397 0.00042295683 0.0004039389 0.00039737544 0.00035454714 0.00026307348 0.0001272204 0.00027047
0.0005453546 0.000587139 2.0738116e-05 2.1355407e-05 1.9285564e-05 1.8609997e-05 1.46631055e-05 1.9936024e-05
4.326937e-05 4.5146946e-05 3.2566928e-05 1.9548143e-05 0.00030640548 0.0002530982 0.0002319702 0.00021581799
0.00018639039 0.00016951024 0.00013545976 0.0002876988 0.0003995726 0.00022251898 0.00028770132 0.00025435572
0.00024435404 0.00023423508 0.00018736355 0.00016738768 0.00014264279 0.00031033342 0.00047325512 0.0002561948
0.00054000306 0.0004563041 0.0004641801 0.00045171063 0.00046043887 0.00040950385 0.0005644749 0.00062680506
0.00045499386 0.0004327731 0.00016348508 0.00015215055 0.00014463256 0.0001373919 0.00011671843 6.7878354e-05
5.0631366e-05 0.00013800587 0.00019442766 0.00011192152 4.2604308e-05 2.877935e-05 3.1041658e-05 3.095063e-05
3.923781e-05 3.770092e-05 2.3700657e-05 2.5235431e-05 1.6167834e-05 3.7864276e-05 9.213811e-05 8.1998995e-05
8.445545e-05 8.324999e-05 9.650691e-05 5.205579e-05 2.2956881e-05 3.783168e-05 3.802126e-05 7.067856e-05
0.00026303122 0.00023555341 0.00024692828 0.00024705837 0.00027934968 0.00019641142 6.072286e-05 0.00012976906
0.00015592176 0.00024362287 2.1026368e-07 8.187818e-08 3.4529048e-08 7.320526e-08 1.8336583e-07 6.1767383e-07
1.2978721e-07 2.672466e-07 2.3706582e-07 1.3199937e-07 0.00014964875 0.00012798188 0.00012981187 0.0001279677
0.00013535727 0.00011181396 4.400382e-05 0.00011309984 0.00012574453 0.0001309019 4.224426e-05 3.0086983e-05
2.7234306e-05 2.3800918e-05 1.8570789e-05 2.3463022e-05 4.0813553e-05 5.4228116e-05 3.2100204e-05 2.179611e-05
0.00025138442 0.0002398265 0.00021628458 0.00020294395 0.00014634286 0.00013008212 0.00027956552 0.00036220174
0.00032826865 0.000201808 0.0004414448 0.00044645235 0.0004299173 0.0004148148 0.00036685038 0.00025882715
0.00021574984 0.0004569028 0.0006085259 0.0005743395 0.00023102462 0.00016306071 0.0001795968 0.00018161378
0.00022254608 0.00021390535 0.00014409752 0.00020083031 0.00014377401 0.00015131537 0.0002287408 0.00020412095
0.0001958762 0.00018544788 0.00015362809 0.00018255388 0.00022977752 0.00028085063 0.00027062348 0.00017760476
0.0005052726 0.00040940827 0.0004049544 0.0003931827 0.00040328898 0.00040815785 0.0006231184 0.0006440295
0.00041957313 0.0003765037 0.000637485 0.00058090116 0.00055440544 0.0005480201 0.0004661774 0.00044785376
00000000: 992f 283a 1b56 1e3a 9e25 243a 7d9b 213a
00000010: aa42 363a c1ea df39 6ce4 1e39 8068 8839
00000020: 88c6 f839 9214 1b3a 9bf0 b839 32e1 9b39
00000030: a4fe 9c39 f47d 9b39 c9f3 a439 421e 8739
00000040: 0c36 de39 f3dc d739 71fc 7f39 ea63 7539
00000050: c028 353a 9e32 123a be09 123a 7298 0c3a
00000060: dd5e 103a 68fd 063a 1a5c 4b3a c6e8 5e3a
00000070: 9266 0e3a b473 f539 5558 c338 aa4f 7738
00000080: b8b7 8238 120d 8338 3041 9538 6f1e cc38
00000090: f6b8 b738 bd93 aa38 8b17 3b38 8720 a738
000000a0: dad7 3d3a 1cd0 303a c422 373a bf02 323a
000000b0: fd23 3d3a f8ee 143a 42cc 2f3a db0b 4b3a
000000c0: f439 143a ae15 4d3a 83cf 9037 0bcf 3f37
000000d0: 63dd 5737 9ce4 5c37 3d8a 8937 059c 3237
000000e0: 3d68 3a37 670d 1e37 0aa3 c736 0711 4437
000000f0: 3488 1d38 4358 0738 a2af f837 5c98 f137
00000100: dd44 bc37 7cd6 0638 1c69 a938 c06a 9338
00000110: 5517 3d38 cb1c 1d38 0f94 e238 6ee1 d738
00000120: ad16 cc38 2e41 c538 e7d7 a238 72eb 6238
00000130: 977d 5d38 2d8a 0039 4aec 1739 1258 ec38
00000140: a6d8 e539 4ec0 dd39 c3c7 d339 d456 d039
00000150: 83e2 b939 20ed 8939 7766 0539 decd 8d39
00000160: 21f6 0e3a 3bea 193a c4f6 ad37 6324 b337
00000170: 6fc7 a137 aa1c 9c37 8f01 7637 493c a737
00000180: 227c 3538 2a5c 3d38 7998 0838 51fb a337
00000190: 0ca5 a039 44b2 8439 073d 7339 334d 6239
000001a0: ca71 4339 8fbe 3139 340a 0e39 47d6 9639
000001b0: ba7d d139 fc53 6939 9ed6 9639 0c5b 8539
000001c0: a51c 8039 009d 7539 0577 4439 ca84 2f39
000001d0: 6292 1539 3fb4 a239 3a1f f839 e251 8639
000001e0: fe8e 0d3a 193c ef39 335d f339 93d3 ec39
000001f0: 0f67 f139 adb2 d639 45f9 133a 2d50 243a
00000200: 3e8c ee39 d2e5 e239 316d 2b39 9a8a 1f39
00000210: 82a8 1739 db10 1039 bbc6 f438 ea59 8e38
00000220: 045d 5438 abb5 1039 47df 4b39 69b7 ea38
00000230: 07b2 3238 2f6b f137 ba32 0238 fcd0 0138
00000240: 4793 2438 0e21 1e38 c6d0 c637 adb0 d337
00000250: 29a0 8737 75d0 1e38 453a c138 e0f6 ab38
00000260: ad1d b138 8096 ae38 c163 ca38 7b56 5a38
00000270: 8793 c037 75ad 1e38 0479 1f38 4339 9438
00000280: 74e7 8939 e3fe 7639 2776 8139 9d87 8139
00000290: ae75 9239 caf3 4d39 adb0 7e38 9e12 0839
000002a0: ee7e 2339 0475 7f39 d7c4 6134 01d5 af33
000002b0: 174d 1433 0435 9d33 37e3 4434 39ce 2535
000002c0: a35b 0b34 187a 8f34 288c 7e34 b6bb 0d34
000002d0: 08eb 1c39 e032 0639 1c1e 0839 112f 0639
000002e0: b1ee 0d39 aa7d ea38 be90 3838 0430 ed38
000002f0: 4ada 0339 b642 0939 6e2f 3138 4e63 fc37
00000300: 3a75 e437 15a8 c737 77c8 9b37 75d2 c437
00000310: 382f 2b38 ff72 6338 55a3 0638 cad6 b637
00000320: 3fcc 8339 f079 7b39 73ca 6239 5acd 5439
00000330: 9d73 1939 a766 0839 a692 9239 e5e5 bd39
00000340: 791b ac39 6c9c 5339 b871 e739 d211 ea39
00000350: 8666 e139 807b d939 d355 c039 31b3 8739
00000360: e83a 6239 758c ef39 7b85 1f3a 458f 163a
00000370: 333f 7239 47fb 2a39 2652 3c39 946f 3e39
00000380: 425b 6939 c84b 6039 e218 1739 fa95 5239
00000390: 0bc2 1639 69aa 1e39 24da 6f39 4d09 5639
000003a0: 1e64 4d39 c974 4239 3a17 2139 ef6b 3f39
000003b0: 6ff0 7039 223f 9339 78e2 8d39 6a3b 3a39
000003c0: 4574 043a d9a5 d639 0f50 d439 1724 ce39
000003d0: 8870 d339 05fe d539 c558 233a 17d4 283a
000003e0: 27fa db39 7965 c539 e51c 273a 9e47 183a
000003f0: 8555 113a 02a9 0f3a 4569 f439 eacd ea39

exp_avg f4 [32]
0.00025004323 0.0082911225 0.0029391705 0.0064289593 0.0027464079 0.00036388324 0.0013466534 0.004687387
-0.0007125565 0.0027409894 0.0031804142 0.005313689 0.0021570046 -0.00225415 0.0019076258 0.0024259838
0.00032759362 1.13659935e-05 0.0019895069 -8.730279e-05 0.001555075 0.010877746 0.0004419895 0.0014525795
0.0022269771 -0.0012309196 0.0045668767 0.004759057 -0.002084591 0.0037460842 0.0012107485 0.0064717107
00000000: 3c18 8339 7dd7 073c 199f 403b 05aa d23b
00000010: 14fd 333b 95c7 be39 3182 b03a a798 993b
00000020: dbca 3aba 2ca2 333b 7f6e 503b 741e ae3b
00000030: 885c 0d3b 5dba 13bb 4d09 fa3a 41fd 1e3b
00000040: dfc0 ab39 92b0 3e37 6362 023b 5416 b7b8
00000050: a9d3 cb3a 9338 323c d4ba e739 7b64 be3a
00000060: 7af2 113b cf56 a1ba bda5 953b ddf1 9b3b
00000070: a29d 08bb dd80 753b fab1 9e3a a510 d43b

exp_avg_sq f4 [32]
0.0004983561 0.00029099156 0.00051738543 7.953939e-05 0.00051393354 8.755702e-06 3.866332e-05 0.00012450389
0.00045793873 2.6353313e-05 0.0003001764 0.00027097214 0.0003966177 0.00014927397 2.6306954e-05 5.752836e-05
0.00020602967 2.7889828e-07 0.00013039468 2.4803756e-05 0.00023155418 0.00047851453 0.00016362165 0.00021270906
0.0003814108 0.0006775606 0.00032478513 0.00039404878 0.00016024403 0.00036632954 0.00037343602 0.000787207
00000000: 1da4 023a 3a90 9839 26a1 073a 63ce a638
00000010: 7fb9 063a 74e5 1237 6c2a 2238 428d 0239
00000020: 7f17 f039 4f11 dd37 ff60 9d39 4411 8e39
00000030: 20f1 cf39 6d86 1c39 c1ad dc37 9b4a 7138
00000040: ab09 5839 7dbb 9534 8eba 0839 a911 d037
00000050: 5acd 7239 22e1 fa39 da91 2b39 a70a 5f39
00000060: 17f8 c739 529e 313a ec47 aa39 5598 ce39
00000070: 2e07 2839 eb0f c039 bcc9 c339 915c 4e3a

exp_avg f4 [16, 32]
-1.0836585e-05 -2.0056501e-05 3.3141718e-05 0.0002760462 0.00028613582 0.0001364511 -1.4032258e-05 2.596561e-05
6.4930675e-05 -2.603128e-06 1.3042176e-05 -6.197753e-06 6.9691894e-05 3.5738158e-05 0.00083796436 0.00039643043
0.00023118107 -4.649659e-06 0.00038057152 -9.434305e-07 -1.4414982e-06 8.966876e-05 0.00011790099 -1.9179337e-05
5.0821818e-05 1.1603398e-05 -5.064972e-05 4.4877954e-05 8.878474e-05 0.00029503068 0.000280506 0.000103641425
0.0015683293 -0.0017265623 0.00034017133 0.0016099466 0.0010701601 0.0008800524 0.0034960879 0.00384745
0.0022042675 0.0028427313 0.0017328357 0.0009838993 -0.00059482333 0.00198626 0.005135336 0.0013322317
0.003333318 1.1518896e-05 0.003978204 0.00012453055 0.00349428 0.008840742 -0.0018210469 0.001889772
-4.086004e-05 0.0016886515 0.0008270255 0.0077858297 -0.00021682466 0.0028630586 0.0027334155 0.0040020444
0.0014841018 -0.0009962365 0.00076755363 -0.0010510746 0.0009371452 -0.00018555584 0.004541595 0.003954071
0.00095370924 0.005680167 0.0014737577 0.0010364142 -0.000365985 0.00056359184 0.0019805066 -0.0019137602
0.0019150868 1.8498371e-05 0.004367054 0.000110074565 0.004054045 0.009566457 -0.0032207211 0.0027509716
0.00133211 0.0028490664 0.0003064514 0.005564118 -0.0017113353 0.0017090443 -0.00032882972 0.0028227377
0.00029516494 0.0045047468 0.0018062099 0.0007892355 0.00021701366 0.00044200945 -0.00023169508 -1.8938188e-06
0.00012456457 0.00038611068 -0.0003398048 0.00015414537 -0.00033721974 0.00021373639 0.0009937111 0.00084838684
0.0003588481 -5.022401e-08 -0.00013902737 -0.0001325496 -0.00040062587 -0.0006176723 0.00059421913 -0.00032020645
0.0015816435 0.00016424796 0.0008036873 0.00019951192 0.00033044853 0.00015702662 0.0018222718 0.0003309377
-0.00046496486 -0.0014113148 0.000339511 -0.0011129864 0.00058712775 0.0005364429 0.00039979248 0.0015882499
-0.0014046946 4.3500007e-05 -0.0002789477 -0.00082279614 -0.0026450576 -0.00025765228 0.003364752 4.7825673e-05
0.0017015239 9.641769e-06 0.0018676537 -9.324581e-06 0.00054415886 0.0056434767 -0.0043124305 0.0011327926
5.1109066e-05 -0.0014223553 -0.0014645352 0.0065887473 -0.00066772 0.00043392924 0.0015560226 -5.5290743e-06
-0.00070800824 -0.0017306191 -0.0002032259 -0.00065980555 0.0001559432 -0.000346825 0.0025551375 0.00091121625
0.00094508217 0.0018077086 0.0010657002 0.00044780975 2.0122343e-05 0.0005121974 -0.0009983246 -0.0012430392
-0.0010857799 1.0803419e-05 0.00061271526 5.4966473e-05 0.0024422498 0.0038089408 -0.00097084604 0.00048362094
0.00011268742 0.0014175562 0.00064352667 0.0009476329 -0.0005437288 -0.00032105276 -0.0010616182 0.0013893301
0.0005309974 0.0043868944 0.0026172907 0.0017850571 0.0008446463 0.00026689802 0.00035624977 0.0005925227
0.00012013446 0.0030749058 3.0899042e-05 -3.2693744e-05 0.0003016287 4.499701e-05 0.002205701 0.0012744454
0.0009633341 -2.5991902e-19 0.0008664479 -0.00016747141 7.903926e-05 -0.0002998996 0.00090073753 0.0005029623
0.0029586803 0.0003701036 0.0019186509 0.00027801146 0.00087991334 0.00075951347 0.0024920604 0.00024977283
0.0006579889 0.0074058487 0.0037110304 0.0020953594 0.00092670845 0.00048340572 0.00088266376 0.0008495011
0.00025265486 0.0046262196 -4.4528726e-05 0.0003465399 0.0010379761 0.0003724197 0.0024250383 0.0015224813
0.0011613335 6.684432e-07 0.00065478147 -0.00030098355 0.00040081027 0.0001413587 0.00080814486 0.0008359674
0.0050378484 -0.0003846425 0.0035869956 0.00052772503 0.000843489 0.0011762765 0.0033853038 0.00032286267
00000000: c7ce 35b7 023f a8b7 a601 0b38 4bba 9039
00000010: 8004 9639 5014 0f39 176c 6bb7 b9d0 d937
00000020: 642b 8838 66b1 2eb6 b8cf 5a37 4bf6 cfb6
00000030: 8d27 9238 8ee5 1538 d6aa 5b3a fed7 cf39
00000040: 3269 7239 4404 9cb6 7287 c739 0d40 7db5
00000050: 8079 c1b5 8d0c bc38 9d41 f738 50e3 a0b7
00000060: 8329 5538 37ac 4237 b970 54b8 563b 3c38
00000070: f231 ba38 59ae 9a39 e110 9339 115a d938
00000080: 6690 cd3a d14d e2ba 0659 b239 d804 d33a
00000090: 9d44 8c3a 51b3 663a 9f1e 653b 8025 7c3b
000000a0: 7975 103b 1e4d 3a3b 5120 e33a 2ff6 803a
000000b0: ebed 1bba ea2b 023b 5246 a83b 479e ae3a
000000c0: cc73 5a3b 4841 4137 985b 823b 6a94 0239
000000d0: 4a00 653b c2d8 103c 32b0 eeba 3ab2 f73a
000000e0: 2261 2bb8 be55 dd3a becc 583a 4620 ff3b
000000f0: 6d5b 63b9 27a2 3b3b 1a23 333b 9523 833b
00000100: 3186 c23a 2694 82ba a735 493a 36c4 89ba
00000110: c0aa 753a c491 42b9 a9d1 943b 2791 813b
00000120: 5802 7a3a b220 ba3b 1a2b c13a 4ad8 873a
00000130: ade1 bfb9 02be 133a 63cb 013b 23d7 faba
00000140: a603 fb3a f32c 9b37 8119 8f3b d5d7 e638
00000150: cbd7 843b a1bc 1c3c bc12 53bb a549 343b
00000160: 329a ae3a 67b7 3a3b 36ab a039 3453 b63b
00000170: e24e e0ba 0302 e03a c766 acb9 aefd 383b
00000180: 5ec0 9a39 8e9c 933b 59be ec3a b3e4 4e3a
00000190: 298e 6339 81bd e739 2df3 72b9 1e2f feb5
000001a0: 8c9d 0239 e66e ca39 d427 b2b9 15a2 2139
000001b0: decc b0b9 6d1e 6039 693f 823a 4766 5e3a
000001c0: c723 bc39 e2b5 57b3 e0c7 11b9 03fd 0ab9
000001d0: 180b d2b9 49eb 21ba 5fc5 1b3a 62e1 a7b9
000001e0: 264f cf3a fa39 2c39 8bae 523a 1334 5139
000001f0: 0d40 ad39 83a7 2439 4cd9 ee3a b581 ad39
00000200: 87c6 f3b9 defb b8ba 6500 b239 a0e1 91ba
00000210: 7ae9 193a 13a0 0c3a 3d9b d139 d32c d03a
00000220: bb1d b8ba c773 3638 ba3f 92b9 eab0 57ba
00000230: b458 2dbb 8115 87b9 2c83 5c3b 6d98 4838
00000240: ab05 df3a 15c3 2137 0fcc f43a c570 1cb7
00000250: e2a5 0e3a eaec b83b 4a4f 8dbb 367a 943a
00000260: f15d 5638 536e baba a6f5 bfba 6be6 d73b
00000270: ee09 2fba ff80 e339 74f3 cb3a 6386 b9b6
00000280: a199 39ba f1d5 e2ba 0a19 55b9 cdf6 2cba
00000290: af84 2339 10d6 b5b9 1874 273b b0de 6e3a
000002a0: 64bf 773a a3f0 ec3a f7ae 8b3a 02c8 ea39
000002b0: 67cc a837 fc44 063a 37da 82ba 79ed a2ba
000002c0: ba50 8eba 5540 3537 a09e 203a cd8b 6638
000002d0: 270e 203b 6c9f 793b 6080 7eba 818e fd39
000002e0: 9952 ec38 4bcd b93a 58b2 283a 916a 783a
000002f0: 0689 0eba f952 a8b9 ff25 8bba 2f1a b63a
00000300: a232 0b3a f0bf 8f3b da86 2b3b 94f8 e93a
00000310: 416b 5d3a 72ee 8b39 09c7 ba39 8653 1b3a
00000320: b2f0 fb38 5c84 493b 9899 0138 a420 09b8
00000330: eb23 9e39 2cbb 3c38 868d 103b 4b0b a73a
00000340: 4288 7c3a da6d 99a0 5622 633a 449b 2fb9
00000350: e1c1 a538 d83b 9db9 791f 6c3a 3bd9 033a
00000360: 6be6 413b 770a c239 3e7b fb3a 11c2 9139
00000370: fca9 663a 161a 473a d651 233b f1f3 8239
00000380: e37c 2c3a c3ac f23b c234 733b 4c52 093b
00000390: 5aee 723a 9e71 fd39 9062 673a 0eb1 5e3a
000003a0: c376 8439 8b97 973b 5bc4 3ab8 ccaf b539
000003b0: b30c 883a 5341 c339 64ed 1e3b ff8d c73a
000003c0: e337 983a 116f 3335 a4a5 2b3a 54cd 9db9
000003d0: d823 d239 b039 1439 afd9 533a d324 5b3a
000003e0: 8914 a53b d8a9 c9b9 cd13 6b3b 0757 0a3a
000003f0: 971d 5d3a 4a2d 9a3a f9db 5d3b e545 a939

exp_avg_sq f4 [16, 32]
1.9132513e-06 3.965507e-06 1.9895176e-06 1.8016586e-06 9.402225e-06 1.4572844e-06 2.4095293e-08 1.3435822e-07
4.9100953e-07 3.4940577e-08 1.2855323e-08 3.4257561e-09 2.9287291e-06 4.1309858e-07 1.3195886e-05 4.3747928e-06
3.7513037e-06 3.128178e-10 2.7302485e-06 6.668079e-10 1.612706e-08 4.2784768e-07 3.6530566e-06 6.2184014e-08
9.0198915e-07 1.8711768e-07 3.3419568e-07 9.511245e-07 7.053283e-07 2.8311345e-06 3.7238287e-06 1.3287215e-06
4.453247e-05 3.154796e-05 3.600833e-05 6.817226e-05 3.2849945e-05 1.2479164e-05 3.989576e-05 8.705697e-05
7.002473e-05 0.00011435931 2.129064e-05 3.1226027e-05 7.431181e-05 5.267637e-05 0.00013987384 5.7661233e-05
6.7320216e-05 6.398671e-08 7.321213e-05 8.3289415e-06 7.223425e-05 0.000114136696 8.925702e-05 9.1349284e-05
3.1409483e-05 0.00011544569 3.9890816e-05 0.00012704726 4.584203e-05 4.466098e-05 0.00014067903 0.0001386067
4.926055e-05 3.472397e-05 4.310359e-05 7.836553e-05 2.1264823e-05 1.5497406e-05 4.582718e-05 9.311804e-05
7.847307e-05 0.000118830656 2.3223003e-05 3.2549025e-05 6.299503e-05 5.8296268e-05 0.00016295414 6.46044e-05
7.510445e-05 8.389871e-08 8.27272e-05 7.598086e-06 8.169978e-05 0.0001247912 0.000106158535 9.98775e-05
2.4633136e-05 0.00012219175 3.8177808e-05 0.00013961278 5.6037457e-05 5.1702656e-05 0.0001605796 0.00016186906
6.5366917e-06 9.980646e-05 0.0001245761 2.5163796e-05 9.020852e-05 8.960346e-06 2.5648294e-05 1.2950489e-05
8.044117e-07 8.253832e-05 1.2898251e-06 6.7666597e-06 0.00014433976 9.1884e-07 5.6145087e-05 1.6970906e-05
1.586734e-05 6.478369e-12 1.895529e-05 3.0941626e-06 5.789011e-06 8.702279e-06 1.903694e-05 1.540264e-05
7.6786666e-05 1.2264647e-05 6.000833e-05 1.6349807e-06 5.4921447e-06 1.12479765e-05 2.1204707e-05 8.229067e-06
5.9972503e-05 5.0388655e-05 9.24561e-05 0.00010051013 5.765887e-05 1.907204e-05 7.380021e-05 0.0001263405
9.287288e-05 0.0002017228 2.8572833e-05 4.540314e-05 0.00015992868 7.1527116e-05 0.00020314299 8.001559e-05
9.431032e-05 1.0615512e-07 0.00010828467 1.1462497e-05 0.000102518185 0.00015768972 0.00012754847 0.00012795169
6.733398e-05 0.00016167796 9.240023e-05 0.00016709285 6.794627e-05 6.208319e-05 0.00020192013 0.00019781609
2.1834037e-05 1.6630589e-05 2.5183475e-05 3.3713743e-05 1.7217317e-05 6.1884975e-06 2.2562586e-05 4.360334e-05
3.5081077e-05 6.370264e-05 1.0385038e-05 1.6483373e-05 3.81878e-05 2.5482064e-05 6.908759e-05 2.7579044e-05
3.3781977e-05 3.815539e-08 3.631008e-05 4.0153645e-06 3.6563873e-05 5.6113284e-05 4.4326793e-05 4.5724264e-05
2.2399077e-05 5.5902776e-05 2.5502168e-05 5.9801296e-05 2.3625076e-05 2.212916e-05 7.156367e-05 6.8398265e-05
6.518486e-06 0.00018466846 0.00022331723 4.307371e-05 0.00014066906 1.5398124e-05 4.226007e-05 1.3809073e-05
3.863975e-07 0.0001307136 8.9600445e-07 5.6064146e-06 0.00024898024 9.2714885e-07 8.580368e-05 2.5306086e-05
1.9296234e-05 2.7401513e-13 2.009778e-05 2.9696257e-06 6.1506526e-06 5.0305625e-06 2.9125173e-05 1.9463787e-05
0.00013163756 1.1310302e-05 0.0001025435 2.1684036e-06 1.113398e-05 1.0666508e-05 4.0524417e-05 1.2016398e-05
2.5038233e-05 0.00034080815 0.00043614281 9.0217625e-05 0.00029200647 3.0074254e-05 8.501278e-05 4.0245104e-05
2.8357726e-06 0.0002915837 3.847553e-06 1.5121593e-05 0.0005109092 2.4821275e-06 0.00020276268 6.2668616e-05
5.95056e-05 8.477934e-11 6.044128e-05 1.0835672e-05 2.0667689e-05 2.2295077e-05 5.6644367e-05 4.8393842e-05
0.00026279583 3.6058653e-05 0.00021959184 5.75547e-06 1.6329675e-05 3.8736765e-05 6.3204316e-05 2.6338974e-05
00000000: 6865 0036 720f 8536 a783 0536 85d0 f135
00000010: 40be 1d37 e997 c335 1cfa ce32 1b44 1034
00000020: ebcd 0335 9211 1633 4fda 5c32 8a6a 6b31
00000030: 2f8b 4436 d6c7 dd34 e663 5d37 2fcb 9236
00000040: e8be 7b36 31f9 ab2f 5039 3736 6f4a 3730
00000050: c887 8a32 f0b2 e534 0927 7536 068a 8533
00000060: 3920 7235 84ea 4834 816b b334 c750 7f35
00000070: cb55 3d35 85fe 3d36 e4e6 7936 8656 b235
00000080: 60c8 3a38 5d52 0438 a607 1738 b4f7 8e38
00000090: 5cc8 0938 9a5d 5137 bf55 2738 5b92 b638
000000a0: 3eda 9238 30d4 ef38 4d99 b237 b1f8 0238
000000b0: d9d7 9b38 d2f0 5c38 19ab 1239 47d9 7138
000000c0: 442e 8d38 1169 8933 7789 9938 88bc 0b37
000000d0: 787c 9738 ac5c ef38 7f2f bb38 c692 bf38
000000e0: adbd 0338 6f1b f238 7050 2738 fd37 0539
000000f0: 8146 4038 5d52 3b38 3d83 1339 f456 1139
00000100: 1d9d 4e38 94a4 1138 21ca 3438 2c58 a438
00000110: dc61 b237 6d00 8237 8f36 4038 5e48 c338
00000120: e991 a438 b934 f938 05cf c237 4085 0838
00000130: 331c 8438 2483 7438 abde 2a39 397c 8738
00000140: 6581 9d38 ce2b b433 d47d ad38 10f3 fe36
00000150: 3c56 ab38 62da 0239 6ea1 de38 5375 d138
00000160: 42a3 ce37 9920 0039 1c21 2038 0565 1239
00000170: c309 6b38 4edb 5838 4261 2839 65bb 2939
00000180: c155 db36 2f4f d138 a4a0 0239 d716 d337
00000190: 552e bd38 6554 1637 4b27 d737 ed45 5937
000001a0: c0ee 5735 6c18 ad38 0e1e ad35 2a0d e336
000001b0: e959 1739 34a6 7635 547d 6b38 be5c 8e37
000001c0: da1a 8537 f6ef e32c 2d02 9f37 4fa5 4f36
000001d0: 3a3f c236 0100 1237 84b1 9f37 eb34 8137
000001e0: 8708 a138 42c4 4d37 74b1 7b38 8271 db35
000001f0: 2a49 b836 b1b5 3c37 c3e0 b137 930f 0a37
00000200: fc8a 7b38 6858 5338 fee4 c138 f7c8 d238
00000210: bed6 7138 e5fc 9f37 30c5 9a38 457a 0439
00000220: bfc4 c238 8d85 5339 b1af ef37 406f 3e38
00000230: 87b2 2739 d400 9638 c802 5539 0bce a738
00000240: 78c8 c538 65f7 e333 e416 e338 0d4f 4037
00000250: 08ff d638 8359 2539 88be 0539 c52a 0639
00000260: a835 8d38 1988 2939 ffc6 c138 a535 2f39
00000270: 607e 8e38 a932 8238 86ba 5339 da6c 4f39
00000280: 3d28 b737 eb81 8b37 1a41 d337 db67 0d38
00000290: e86d 9037 caa6 cf36 c944 bd37 bbe2 3638
000002a0: 0524 1338 1898 8538 663b 2e37 c645 8a37
000002b0: d72b 2038 51c2 d537 1ee3 9038 8c59 e737
000002c0: 1fb1 0d38 4ce0 2333 a74b 1838 b8bb 8636
000002d0: 295c 1938 2e5b 6b38 88eb 3938 0ec8 3f38
000002e0: a7e5 bb37 2679 6a38 7ded d537 27d3 7a38
000002f0: 772e c637 02a2 b937 7414 9638 0a71 8f38
00000300: 5eb9 da36 90a3 4139 432a 6a39 0baa 3438
00000310: 9080 1339 382b 8137 6840 3138 84ad 6737
00000320: 1172 cf34 2a10 0939 f584 7035 bc1e bc36
00000330: 9089 8239 2fe1 7835 80f1 b338 6848 d437
00000340: 59de a137 be41 9a2a a797 a837 c849 4736
00000350: b461 ce36 34cc a836 d551 f437 2a46 a337
00000360: 3008 0a39 61c1 3d37 9f0c d738 e484 1136
00000370: 14cc 3a37 4ef4 3237 c3f8 2938 099a 4937
00000380: 3209 d237 7fae b239 19aa e439 3833 bd38
00000390: 7218 9939 f847 fc37 e448 b238 dacc 2838
000003a0: 344e 3e36 b4df 9839 3b1a 8136 bfb2 7d37
000003b0: 89ee 053a a092 2636 b19c 5439 f56c 8338
000003c0: a795 7938 876e ba2e 5582 7d38 dbca 3537
000003d0: 865f ad37 5006 bb37 6d95 6d38 7efa 4a38
000003e0: dcc7 8939 af3d 1738 3c42 6639 1c1f c136
000003f0: b6fb 8837 4979 2238 8f8c 8438 84f2 dc37

exp_avg f4 [16]
0.00036331126 0.0052549057 0.006089507 0.0022698329 0.00024055503 0.0012020307 0.0050845356 0.007077062
-0.0037312966 0.002157186 0.0012360996 0.0014569975 0.004643368 0.0055245114 0.0004865784 0.003418306
00000000: d07a be39 5831 ac3b 7d8a c73b 7ac1 143b
00000010: 803d 7c39 758d 9d3a 2d9c a63b b3e6 e73b
00000020: c588 74bb 935f 0d3b 9f04 a23a b9f8 be3a
00000030: 6527 983b f606 b53b 731b ff39 a805 603b

exp_avg_sq f4 [16]
5.6489566e-06 0.0003347994 0.00035103594 0.0001453337 0.00050428056 0.00017060022 0.00022287019 0.0004953602
0.0002543078 0.00033434402 0.000307106 0.00039813772 0.0006100559 0.0004186191 0.00022112945 0.00022001959
00000000: 2b8c bd36 0488 af39 3f0b b839 b864 1839
00000010: b231 043a 26e3 3239 43b2 6939 0fdb 013a
00000020: 9d54 8539 e54a af39 1203 a139 24bd d039
00000030: 29ec 1f3a 1b7a db39 fcde 6739 0fb5 6639

exp_avg f4 [1, 16]
-0.0004243326 0.033555068 0.022854004 -0.009966046 0.009434395 0.011835828 -0.008207726 -0.009990383
-0.0060406676 0.013448123 -0.0047180783 -0.0028161414 0.009179634 0.019507766 0.0037440131 -0.00084650604
00000000: f578 deb9 0a71 093d 5238 bb3c a048 23bc
00000010: b892 1a3c 10eb 413c b379 06bc b4ae 23bc
00000020: cbf0 c5bb 8455 5c3c 1c9a 9abb 038f 38bb
00000030: 2d66 163c c0ce 9f3c 1e5e 753b 0fe8 5dba

exp_avg_sq f4 [1, 16]
8.564858e-06 0.0034921607 0.0038033165 0.004204254 0.003761292 0.0051675136 0.0013241088 0.002061988
0.0029225799 0.003376122 0.002197476 0.003594988 0.0026886957 0.002533453 0.0027776416 0.0016011575
00000000: c9b1 0f37 bcdc 643b 1041 793b d7c3 893b
00000010: 0280 763b 3f54 a93b b88d ad3a 6b22 073b
00000020: c188 3f3b ee41 5d3b 8803 103b e499 6b3b
00000030: d434 303b 4a08 263b 1809 363b eedd d13a
