tasks/BinaryRainfallPrediction/output/model1/exp20250419171426/final_model.pth (torch, 6384 bytes, 5 tensors)

model.0.weight f4 [32, 10]
0	0xbec1dc10	-0.37863207
1	0xbe6027ac	-0.21890134
2	0xbdf67535	-0.12034074
3	0xbd31b1d5	-0.043382484
4	0x3d0595db	0.032613616
5	0x3eb299d9	0.34883
6	0x3be5387a	0.006995258
7	0xbdbbebf0	-0.09175861
8	0x3e17596e	0.14780208
9	0x3e0a52da	0.13508168
10	0x3e8ea07a	0.2785681
11	0x3e73ffde	0.23828074
12	0xbe08b4e8	-0.1335026
13	0xbe5daea1	-0.21648647
14	0xbda5aed4	-0.080899864
15	0xbe1fea4c	-0.15616721
16	0xbd335cbb	-0.043789607
17	0x3d2774a0	0.040882707
18	0x3e7b944e	0.24568292
19	0x3d999f8d	0.07501135
20	0xbd9932b6	-0.074803755
21	0x3b865e2c	0.0041005816
22	0x3d7ed151	0.06221134
23	0xbd2547f3	-0.04035182
24	0x3ea0f9f2	0.31440693
25	0xbe009b39	-0.12559213
26	0x3ece61a2	0.40308863
27	0xbe835c5a	-0.25656396
28	0xbe90dfbd	-0.282957
29	0xbc806c86	-0.015676748
30	0x3c4334f4	0.0119144805
31	0x3e80c3c2	0.2514935
32	0x3de77651	0.11301864
33	0x3bd563d3	0.006512144
34	0x3dc74e58	0.0973174
35	0x3ce0fd33	0.027464485
36	0x3e1ec9cc	0.15506667
37	0xbe439461	-0.19099571
38	0x3e8e115f	0.27747628
39	0x3e93b129	0.288461
40	0xbe541c06	-0.20713815
41	0xbd31b07f	-0.04338121
42	0xbe679391	-0.22614886
43	0xbd9aa7c5	-0.07551531
44	0xbeb894c3	-0.36050996
45	0x3d50febf	0.051024195
46	0xbee16ac8	-0.4402678
47	0x3ea3bed7	0.31981537
48	0x3e600837	0.21878134
49	0xbe297cff	-0.16551588
50	0xbeb79f24	-0.35863602
51	0xbc97504a	-0.018470902
52	0xbdbb7894	-0.09153858
53	0x3dbc5e45	0.09197668
54	0xbe14be42	-0.14525703
55	0x3eada2b5	0.33913198
56	0x3d703f4f	0.058654126
57	0xbeababfe	-0.33529657
58	0xbe3ab579	-0.18233289
59	0x3e34419a	0.1760315
60	0xbdc11bce	-0.094291314
61	0xbe8a7fc4	-0.27050602
62	0xbe1643f9	-0.14674367
63	0xbdd88093	-0.105713986
64	0xbe501350	-0.20319867
65	0x3dd6b330	0.10483396
66	0x3eabb7d0	0.33538675
67	0xbe2ac429	-0.16676392
68	0xbdbde507	-0.09272199
69	0xbcc52b3b	-0.024068465
70	0xbe8ba63f	-0.27275273
71	0xbe3f1df6	-0.18663773
72	0x3b4f19a4	0.0031600976
73	0x3e8ecd8c	0.27891195
74	0xbcc5f6da	-0.02416556
75	0x3ea5bc76	0.32370347
76	0x3dd37408	0.103248656
77	0xbe3b0197	-0.18262325
78	0xbe4b16e4	-0.19832951
79	0x3e8a4063	0.27002248
80	0x3e8c50b8	0.27405334
81	0x3c5dd538	0.013539605
82	0x3e6ae771	0.2293985
83	0x3e97023c	0.29493892
84	0x3e857fee	0.26074165
85	0x3e9f1a3b	0.310747
86	0xbccc0002	-0.024902347
87	0xbed1b168	-0.40955663
88	0xbe8a1832	-0.26971585
89	0x3d8cf4bc	0.06882617
90	0xbe863c9b	-0.26218113
91	0xbe5fb44b	-0.2184612
92	0xbdfeed92	-0.12447657
93	0xbe875a59	-0.26436117
94	0xbd86d763	-0.065840505
95	0xbca52e05	-0.020163545
96	0xbee04787	-0.4380457
97	0x3e86a3af	0.26296756
98	0xbd976c73	-0.07393732
99	0xbd7541ae	-0.05987709
100	0x3e341c93	0.17589025
101	0x3e966af5	0.29378477
102	0x3bad1850	0.0052824393
103	0xbe2ec648	-0.17067826
104	0xbe278f67	-0.16363297
105	0xbd09bebb	-0.03362916
106	0x3d409096	0.047012888
107	0x3e811321	0.25209907
108	0xbd5f4ff4	-0.05451961
109	0xbe5c161f	-0.21492814
110	0xbea02625	-0.31279102
111	0xbdcd0a08	-0.10011679
112	0x3ca6fa8f	0.020383148
113	0xbdf15405	-0.117836036
114	0xbe26e862	-0.16299585
115	0x3e63e7a1	0.22256328
116	0x3c9ed098	0.019386575
117	0xbeb5427d	-0.3540229
118	0xbeb241c5	-0.34815803
119	0xbd8658a9	-0.06559879
120	0x3e85d495	0.2613875
121	0x3ddc3385	0.10752014
122	0xbd91ad83	-0.07113173
123	0x3c9cc864	0.019138522
124	0x3bb9dd84	0.0056721587
125	0xbd4e1e34	-0.050321773
126	0xbf11dd88	-0.56978655
127	0xbd2bfaf5	-0.04198738
128	0xbe3843a8	-0.17994559
129	0x3e0016ab	0.12508647
130	0xbeac2f6b	-0.33629927
131	0xbd3e4fce	-0.046462826
132	0xbdd050c9	-0.101716585
133	0x3ea64198	0.3247192
134	0x3eb41b27	0.35176966
135	0x3ed225f9	0.41044596
136	0x3e7bab45	0.24577053
137	0xbe5c6ae3	-0.21525149
138	0x3d74bb16	0.05974873
139	0xbe15bcac	-0.14622754
140	0xbda9a3ce	-0.082831964
141	0xbcefd294	-0.029275216
142	0xbd264424	-0.040592328
143	0xbe894fed	-0.2681879
144	0x3ca8f33d	0.020623798
145	0x3dd1cb14	0.10243812
146	0xbed0d599	-0.40787962
147	0x3e3a20cc	0.18176574
148	0x3c1ad30e	0.009449733
149	0x3c759e3c	0.014991339
150	0xbcd5003a	-0.026001085
151	0x3e8a6880	0.27032852
152	0x3d124940	0.035714388
153	0xbe5f75a6	-0.21822223
154	0xbd7c836b	-0.061648767
155	0x3e6636ac	0.22481793
156	0x3ea845b0	0.32865667
157	0xbc320e3b	-0.010867651
158	0xbde3e15e	-0.1112697
159	0xbddef13f	-0.10885858
160	0xbddce471	-0.10785759
161	0xbe313b1e	-0.17307708
162	0x3d15dff0	0.036590517
163	0x3d9efa85	0.077626266
164	0x3ea56add	0.32308093
165	0x3dfc338e	0.12314521
166	0x3e9289c7	0.2862074
167	0x3d881f54	0.066466
168	0x3da242bb	0.07922884
169	0x3ddd3ad9	0.1080224
170	0xbb943229	-0.004522581
171	0x3d9df44d	0.07712612
172	0xbe5e7902	-0.21725848
173	0x3d7245a5	0.05914845
174	0x3cd81fd9	0.026382374
175	0x3eb864fd	0.36014548
176	0x3e8ebda3	0.27879056
177	0x3dc9d0c8	0.09854275
178	0x3e91dba2	0.2848788
179	0xbdfdb7aa	-0.12388547
180	0x3e94314e	0.28943866
181	0x3e679a01	0.22617342
182	0xbd6259e4	-0.055261508
183	0xbe92336b	-0.28554854
184	0xbdb46de4	-0.088100225
185	0x3c48e31f	0.012261181
186	0x3ea296c3	0.31755647
187	0xbeea8cf6	-0.4581067
188	0xbbb2237e	-0.00543636
189	0xbddfc204	-0.109256774
190	0xbdd6c2d9	-0.10486383
191	0xbdbe6975	-0.09297458
192	0xbc3b41d3	-0.011429268
193	0xbe6332fe	-0.2218742
194	0xbd98d668	-0.0746277
195	0x3d916da7	0.07100993
196	0x3ecc9ce9	0.39963463
197	0x3e8b8cc6	0.2725584
198	0xbe8c3f6a	-0.2739213
199	0x3d4d791a	0.05016432
200	0xbe210b61	-0.15726997
201	0xbe580679	-0.21096219
202	0x3c7bde9e	0.0153729
203	0xbe1b2bdd	-0.15153451
204	0xbea4776a	-0.32122356
205	0xbe8be8f3	-0.27326164
206	0xbee41c82	-0.44553
207	0x3e950678	0.29106498
208	0x3e49b3a6	0.19697437
209	0xbdac5477	-0.08414548
210	0xbe4bccbd	-0.1990232
211	0xbe58f9a1	-0.21188976
212	0xbe227441	-0.1586466
213	0xbde70577	-0.11280339
214	0x3dcac371	0.09900559
215	0xbc3b9512	-0.011449115
216	0xbeb5ffc4	-0.35546696
217	0x3e9760f9	0.29566172
218	0xbde9956b	-0.11405452
219	0xbe5ea664	-0.2174316
220	0xbd94eef0	-0.07272136
221	0xbdb7b87d	-0.08970735
222	0x3e2f15b9	0.1709813
223	0x3eb8d0a8	0.36096692
224	0xbc2a9b00	-0.010412931
225	0xbcb6089e	-0.022220906
226	0x3e9fdf46	0.31225032
227	0xbeddf699	-0.43352202
228	0x3ea9b66f	0.33146998
229	0xbd02d628	-0.031942517
230	0x3db39788	0.08769137
231	0xbe6eafdc	-0.23309273
232	0xbe47daef	-0.1951711
233	0x3d67b178	0.05656573
234	0x3e384ce8	0.17998087
235	0x3e9a3869	0.30121163
236	0x3f11508b	0.56763524
237	0xbe09181a	-0.133881
238	0xbd9f28d3	-0.077714585
239	0x3db5e183	0.088809036
240	0xbe01939f	-0.12653969
241	0x3d4366fe	0.047705643
242	0xbe88f7df	-0.2675161
243	0xbe6943b9	-0.2277974
244	0x3e89e7f5	0.26934782
245	0xbe63946a	-0.22224584
246	0x3ec4ddcf	0.38450477
247	0x3d8a208a	0.067444876
248	0x3e465668	0.19368899
249	0x3e9791c1	0.2960339
250	0xbe58cc84	-0.21171767
251	0xbd047dc1	-0.03234649
252	0x3da801b2	0.08203448
253	0x3e0c77be	0.13717553
254	0xbe51e802	-0.2049866
255	0x3e9f9471	0.3116794

model.0.bias f4 [32]
0	0x3ce6e574	0.028185584
1	0xbe852730	-0.2600646
2	0x3ef1592c	0.47138345
3	0xbcd4d4e2	-0.025980417
4	0x3e1798bb	0.14804356
5	0x3eb1201b	0.34594807
6	0xbe734bee	-0.23759434
7	0xbce0ffbe	-0.027465697
8	0x3ea775f2	0.32707173
9	0x3e682068	0.22668612
10	0xbe15a428	-0.14613402
11	0x3ebae07f	0.36499402
12	0xbe31eb1b	-0.17374842
13	0xbd8538d6	-0.06504981
14	0x3e33f628	0.1757437
15	0x3e21aff3	0.15789776
16	0x3ed8ab36	0.42318124
17	0x3d49cc89	0.049267326
18	0xbd087699	-0.03331623
19	0x3e9e98e8	0.30976033
20	0x3e62307c	0.22088808
21	0xbbe10e9f	-0.006868198
22	0xbd165ffe	-0.03671264
23	0x3e280cd0	0.16411138
24	0x3c0967c1	0.008386553
25	0x3ea81cec	0.32834566
26	0x3da6dbc8	0.08147389
27	0x3e256c03	0.16154484
28	0x3e31788d	0.17331143
29	0x3e65cd71	0.22441651
30	0xbd968ea5	-0.07351426
31	0x3ec31648	0.38102937

model.3.weight f4 [16, 32]
0	0x3e5c093a	0.21487895
1	0xbdda438c	-0.10657415
2	0x3ea5d2b6	0.32387322
3	0x3e0e62e8	0.13904917
4	0xbe1afa04	-0.15134436
5	0x3cb09636	0.021556001
6	0x3d75e584	0.060033336
7	0xbbd2c309	-0.0064319414
8	0x3e96e9da	0.2947529
9	0x3d247453	0.040149998
10	0xbc317a56	-0.01083239
11	0x3e7d3f63	0.24731211
12	0xbe60ae8e	-0.21941587
13	0x3e24ff78	0.16113079
14	0xbe43034d	-0.19044228
15	0x3e388aea	0.18021742
16	0x3e28c3ed	0.1648099
17	0x3e5085c2	0.20363525
18	0x3e0ab475	0.13545401
19	0x3c975c08	0.018476501
20	0x3cf74ad0	0.03018704
21	0x3cb21781	0.021739723
22	0x3e044a93	0.12919073
23	0x3dbf70e0	0.09347701
24	0x3e20b936	0.15695652
25	0x3bc72c72	0.0060782963
26	0x3e220517	0.15822254
27	0x3db1be70	0.08678901
28	0xbdccd9b2	-0.100024596
29	0x3e32ea9c	0.17472309
30	0xbdc32015	-0.095276035
31	0x3d21151c	0.039326772
32	0x3dffc159	0.1248805
33	0x3daa5462	0.08316876
34	0xbe8ea132	-0.27857357
35	0xbcd8ffa2	-0.026489083
36	0xbcb6b379	-0.022302376
37	0xbe1394e0	-0.1441226
38	0xbcd86c6b	-0.026418885
39	0x3b36c785	0.002788992
40	0xbda3c10b	-0.079958044
41	0x3e5de669	0.21669926
42	0xbd9e32be	-0.07724522
43	0xbd569cd5	-0.05239566
44	0x3e1be0c2	0.15222457
45	0xbd89a6e8	-0.06721288
46	0x3cb449e9	0.0220079
47	0xbd46f824	-0.04857649
48	0xbd92d85c	-0.071701735
49	0xbe44508b	-0.1917135
50	0xbd6d3fcd	-0.057922173
51	0x3d6c536e	0.057696752
52	0x3dd70335	0.104986586
53	0x3e2a503b	0.16632168
54	0xbcaabded	-0.020842517
55	0x3d535539	0.051594947
56	0x3b3d714d	0.0028906644
57	0x3e314ee6	0.17315254
58	0x3d325487	0.043537643
59	0xbd925c54	-0.071465164
60	0x3d01336e	0.031543188
61	0x3cfad1a0	0.030617535
62	0x3e807dd6	0.25096005
63	0xbd2ab02c	-0.041671917
64	0x3e7c0ae1	0.24613525
65	0x3c5a73d1	0.013333277
66	0x3e276250	0.16346097
67	0x3dca094c	0.098650545
68	0xbe2feadf	-0.1717944
69	0x3e8f6e14	0.2801367
70	0x3dd2fab3	0.10301723
71	0x3e709d7a	0.23497573
72	0xb8b73156	-8.7353095e-05
73	0xbe2f7a5b	-0.17136519
74	0x3cb63135	0.02224026
75	0x3e50cd72	0.20390871
76	0xbe0c59c9	-0.13706125
77	0x3e3462a6	0.17615756
78	0xbe6eefe2	-0.23333696
79	0x3e3cf14f	0.18451427
80	0xbc5f2b64	-0.013621185
81	0xbcbd0f91	-0.023078712
82	0x3e0ea213	0.13929014
83	0xbcd818cf	-0.026379017
84	0x3d3d7b82	0.046260364
85	0xbe478c18	-0.19487035
86	0x3e1b68fa	0.15176764
87	0x3e81ea6e	0.25374168
88	0x3cd1f184	0.025627859
89	0x3de7bb29	0.11314995
90	0xbcf757fd	-0.030193323
91	0x3e0e90ae	0.13922378
92	0x3ccb7a8d	0.02483871
93	0x3dae4cac	0.08510718
94	0xbe89b962	-0.26899248
95	0x3e334206	0.17505655
96	0xbb838ef6	-0.004014845
97	0xbca44139	-0.020050632
98	0x3d96d54b	0.07364901
99	0xbb238ae1	-0.0024954604
100	0x3b0a7327	0.0021125765
101	0x3d62d6fe	0.055380814
102	0x3ce3ceac	0.02780851
103	0xbdbb5269	-0.09146578
104	0xbabbdb04	-0.001433224
105	0xbdd5c565	-0.10438041
106	0xbd61f2de	-0.055163257
107	0x3d3b96a4	0.04579796
108	0xbb7defa7	-0.003874758
109	0xbd82d7d7	-0.063888244
110	0xbc4b6d0d	-0.012416136
111	0xbb4bbf01	-0.003108919
112	0xbd790452	-0.060795136
113	0xbda68a39	-0.08131833
114	0xbdaff5d3	-0.08591809
115	0x3bb1c2c2	0.0054248283
116	0xbd507c6f	-0.05089992
117	0xbb859485	-0.004076543
118	0xbcbf1908	-0.023327366
119	0xbdcb7a3f	-0.09935426
120	0xbd16f090	-0.036850512
121	0xbc81b9cd	-0.015835667
122	0xbc67f810	-0.014158264
123	0xbcce3f46	-0.025176656
124	0xbbbac246	-0.0056994287
125	0xbd81c02e	-0.063354835
126	0x3a3825fe	0.0007024704
127	0xbc8df1f6	-0.01732729
128	0x3d280ab5	0.041025836
129	0x3c94c3d3	0.018159783
130	0x3eb103ff	0.3457336
131	0xbc2c5fc4	-0.010520879
132	0xbe2c7d4d	-0.16844673
133	0x3c8a4ec6	0.016883265
134	0x3df4062b	0.11915239
135	0x3e282c41	0.16423132
136	0x3d71d60e	0.05904203
137	0x3db7cc06	0.08974461
138	0xbcad5e8b	-0.021163246
139	0x3e810bd8	0.2520435
140	0xbe790687	-0.24318896
141	0x3e10e4cf	0.14149784
142	0x3c1ddd25	0.0096352445
143	0x3e25b436	0.16182026
144	0x3e9047a2	0.28179651
145	0x3dceb67f	0.10093402
146	0x3e11554c	0.14192694
147	0x3bf42c0d	0.0074515403
148	0xbb9fe942	-0.0048801014
149	0x3dd672f4	0.10471144
150	0x3e9d1a19	0.30683973
151	0x3e760a15	0.24027283
152	0x3dd21e81	0.102597244
153	0x3e5cb0a9	0.21551766
154	0x3d0b7b19	0.034052942
155	0x3e3c7a8b	0.18406121
156	0xbe2fba0b	-0.17160814
157	0x3de8b5db	0.11362811
158	0xbe901a16	-0.28144902
159	0x3e706e71	0.2347963
160	0x3d817c4f	0.06322538
161	0xbd8e3934	-0.069445044
162	0xbe46c603	-0.19411473
163	0xbdbd6550	-0.092478395
164	0x3e0b3e95	0.13598092
165	0x3d91850f	0.07105457
166	0xbdc0058b	-0.09376057
167	0x3d538d3b	0.05164836
168	0xbe22c58a	-0.15895668
169	0x3dfbb07d	0.12289522
170	0xbe06fbec	-0.13182038
171	0x3d7d8d2c	0.06190221
172	0x3ebe5dc8	0.37180924
173	0x3c9a28ca	0.018818278
174	0x3e1cf716	0.15328631
175	0xbe1db8ef	-0.15402578
176	0x3dd6bde3	0.10485437
177	0xbde58146	-0.112062976
178	0xbca2153c	-0.019785516
179	0x3ad89c63	0.0016526099
180	0x3e6e8244	0.2329188
181	0x3e7aa8b4	0.24478418
182	0xbe30998e	-0.17246076
183	0xbe09ed70	-0.13469481
184	0xbe4aa2cd	-0.19788666
185	0x3dd2b121	0.10287691
186	0xbdbd7482	-0.09250738
187	0x3d95107a	0.07278533
188	0x3d977452	0.07395233
189	0x3d7f5a5a	0.062342025
190	0x3e585e5f	0.2112975
191	0xbb924b58	-0.004464548
192	0x3daa05e9	0.083019085
193	0x3d362174	0.044465497
194	0xbe98f5d9	-0.29875067
195	0x3dc29e0b	0.095028006
196	0x3e663b39	0.22483529
197	0x3d6cd326	0.057818554
198	0xbdb81569	-0.08988459
199	0x3d2ba74d	0.041907597
200	0xbe2167d7	-0.15762268
201	0xbd28163e	-0.041036837
202	0x3d78aa12	0.060709067
203	0x3d722881	0.05912066
204	0x3e6508dd	0.22366662
205	0xbe873856	-0.26410168
206	0x3e0ec386	0.13941774
207	0xbe7abd99	-0.24486388
208	0x3d91e598	0.0712387
209	0x3c8b6388	0.017015234
210	0xbd328ead	-0.043593097
211	0x3d8cdf73	0.06878557
212	0x3e07af9f	0.13250588
213	0x3e172874	0.14761525
214	0xbe04c815	-0.1296695
215	0x3d38c504	0.045109764
216	0xbdffc82e	-0.12489353
217	0x3dddda4c	0.108326524
218	0xbcfa1ad5	-0.030530373
219	0x3dee9c0d	0.11650858
220	0x3e579b45	0.21055324
221	0xbe29643a	-0.1654214
222	0x3e6eeadf	0.23331784
223	0xbddad5d4	-0.10685316
224	0x3e36277d	0.17788501
225	0xbd22e470	-0.039768636
226	0x3e0c0941	0.13675405
227	0x3caf2fd9	0.02138512
228	0xbd5a57d3	-0.053306412
229	0xbcf2da4d	-0.02964511
230	0x3de7cf89	0.11318881
231	0x3d70e21c	0.058809385
232	0x3d01f088	0.03172353
233	0xbbaf6880	-0.0053530335
234	0x3cd977e3	0.026546424
235	0xbd86c783	-0.065810226
236	0xbd8812ff	-0.06644248
237	0xbafd9972	-0.0019348098
238	0xbdcea73d	-0.10090492
239	0x3e0cfd36	0.13768467
240	0x3d294ce3	0.04133309
241	0x3e51efcf	0.20501636
242	0xbb39e9d3	-0.002836813
243	0x3da7bd33	0.08190384
244	0x3d833e43	0.0640836
245	0xbd70e9fa	-0.058816887
246	0x3e0ccd49	0.13750185
247	0x3d3fd7de	0.046836726
248	0x3e5b0769	0.21389546
249	0xbc7565f7	-0.014977924
250	0x3d22b68f	0.039724883
251	0x3d8535b2	0.06504382
252	0xbd7425ad	-0.059606243
253	0x3e2e81c5	0.1704169
254	0xbd104e46	-0.035230897
255	0x3e25d3aa	0.16194025

model.3.bias f4 [16]
0	0x3e2a9aa6	0.16660556
1	0xbb8cef05	-0.0043009543
2	0x3e929b2f	0.2863402
3	0xbc820a84	-0.015874155
4	0x3e0de8ee	0.13858387
5	0xbe70a0b5	-0.23498805
6	0xbd0114e9	-0.031514082
7	0x3e3419ff	0.17588042
8	0x3e9be426	0.304475
9	0xbd8a897d	-0.06764505
10	0x3d82b4f3	0.063821696
11	0x3e042e36	0.12908253
12	0x3e10470f	0.14089607
13	0x3d6b3738	0.057425708
14	0xbe2e2628	-0.17006743
15	0x3d86f8f3	0.06590452

model.6.weight f4 [1, 16]
0	0x3e8cd68b	0.27507433
1	0xbe2ea022	-0.17053273
2	0x3e8c4f95	0.27404466
3	0xb9e5cadf	-0.00043829434
4	0x3e54a7da	0.20767155
5	0xbe47f768	-0.19527972
6	0xbe86d7eb	-0.26336607
7	0x3dd93469	0.106056996
8	0x3e9310f1	0.28723863
9	0xbdf27d47	-0.11840301
10	0xbe68f5c3	-0.2275
11	0x3e38ad88	0.18034947
12	0x3e77f9cf	0.24216388
13	0xbd2c13eb	-0.042011183
14	0xbe5b4525	-0.21413095
15	0xbe38a6e9	-0.18032421
