tasks/BinaryRainfallPrediction/output/model1/exp20250419171426/model_checkpoint.pth (torch, 7266 bytes, 5 tensors)

model.0.weight f4 [32, 10]
-0.35578686 -0.21590231 -0.11840755 -0.038496114 -0.019554801 0.28165764 -0.15973891 -0.058629423
0.012916495 0.11446034 0.33052474 0.1947709 -0.17347759 -0.25828767 -0.089517444 -0.19594014
0.032837536 0.051411975 0.24129985 0.09506109 -0.09149446 -0.0125097325 0.05995441 -0.044964544
0.30056792 -0.105708 0.3250603 -0.3380927 -0.24545923 -0.020594642 0.076396026 0.26341352
0.12834473 0.027660333 0.06427961 -0.019093039 0.11487725 -0.14627992 0.3214963 0.22770491
-0.21357337 -0.012832366 -0.21221301 -0.07063617 -0.3000228 -0.006943392 -0.34244224 0.37803686
0.22122918 -0.21424866 -0.32544568 -0.038256597 -0.11741705 0.07625701 -0.1857728 0.28908855
-0.08542993 -0.34541216 -0.20174143 0.18063198 -0.059363663 -0.28715646 -0.15969877 -0.11866202
-0.24491428 0.10543225 0.19772631 -0.12930281 -0.1006072 -0.019489126 -0.27958354 -0.19721718
-0.0069364836 0.2838695 -0.06575081 0.22501947 -0.042659346 -0.14604865 -0.28660867 0.26038045
0.30390584 -0.038856313 0.17981268 0.24700122 0.18789181 0.31274468 -0.13594657 -0.42958602
-0.24527326 0.12819208 -0.2713522 -0.18776566 -0.10891195 -0.25149322 -0.0013047885 -0.06821677
-0.35478783 0.33071268 -0.092526406 -0.11717959 0.20567179 0.29597008 -0.009932171 -0.19961655
-0.15452236 -0.029579563 0.08177135 0.23562916 -0.088111944 -0.2653732 -0.27990866 -0.15878837
-0.03665725 -0.16620655 -0.23067267 0.19583958 -0.06406502 -0.42092776 -0.3583839 -0.039795715
0.31415325 0.1053684 -0.06967644 0.023244286 0.044679757 -0.12002655 -0.44098553 -0.029387033
-0.23834269 0.016507128 -0.35087645 -0.004023375 -0.055007476 0.37726104 0.36323863 0.33195597
0.19264281 -0.20667633 0.10322252 -0.2132338 -0.08824551 -0.027657073 -0.04853356 -0.28293362
0.074169084 0.1209275 -0.32129115 0.21047148 -0.019608997 -0.042792715 -0.0036987783 0.29246014
0.06332007 -0.17863375 -0.062172446 0.25618088 0.20099857 -0.06536632 -0.052000538 -0.14921704
-0.14665678 -0.13837418 0.09090526 0.13589945 0.32019293 0.046949044 0.16870531 0.07559673
0.14372608 0.055953354 0.04484263 0.07657549 -0.2093137 0.075976685 -0.009052531 0.2558572
0.24939959 0.096801706 0.3035668 -0.17314307 0.31176898 0.2061264 -0.06672257 -0.29286066
-0.10783624 0.03288414 0.17598525 -0.44936475 -0.01072512 -0.12138771 -0.0853136 -0.14244701
-0.045848094 -0.26653767 -0.14247115 0.038826052 0.22122431 0.27818343 -0.25168446 0.10437957
-0.14252068 -0.21556272 0.0043042595 -0.16687866 -0.30634996 -0.39043936 -0.3851531 0.37856087
0.17414267 -0.12858208 -0.20202251 -0.1821387 -0.1383593 -0.08967409 0.17278218 -0.04031288
-0.28959373 0.35369894 -0.13859923 -0.25839403 -0.041511018 -0.06980405 0.1992074 0.3857863
-0.011845227 -0.097660154 0.2880297 -0.40898833 0.3667787 -0.16929816 0.13394703 -0.2731856
-0.22464392 0.033715382 0.14867137 0.3409168 0.41630507 -0.14731902 -0.117782086 0.057953723
-0.12448928 0.058491923 -0.253012 -0.21386255 0.26890892 -0.1735859 0.25174496 0.049069278
0.13427599 0.26270944 -0.2488519 -0.009987287 0.105516694 0.16712977 -0.22226688 0.22824794
00000000: b229 b6be 7f15 5dbe a87f f2bd 1aae 1dbd
00000010: 6431 a0bc 6e35 903e 9992 23be 6825 70bd
00000020: b59f 533c 2f6a ea3d 8a3a a93e 0672 473e
00000030: 1ca4 31be 483e 84be ec54 b7bd 88a4 48be
00000040: a780 063d 5d95 523d 4f17 773e 64af c23d
00000050: 7361 bbbd 9ff5 4cbc c192 753d be2c 38bd
00000060: 0ae4 993e 707d d8bd 4e6e a63e 7d1a adbe
00000070: aa59 7bbe 18b6 a8bc 8575 9c3d 23de 863e
00000080: cd6c 033e ec97 e23c 07a5 833d 0169 9cbc
00000090: c344 eb3d 67ca 15be 2a9b a43e 7a2b 693e
000000a0: fab2 5abe d83e 52bc 5e4e 59be b2a9 90bd
000000b0: 979c 99be 6585 e3bb 9754 afbe 0c8e c13e
000000c0: e789 623e 0064 5bbe d1a0 a6be f3b2 1cbd
000000d0: 5a78 f0bd a32c 9c3d 3a3b 3ebe 6a03 943e
000000e0: e3f5 aebd ddd9 b0be 4e95 4ebe 97f7 383e
000000f0: 5027 73bd 2c06 93be 1388 23be 1305 f3bd
00000100: cfca 7abe ddec d73d c478 4a3e f567 04be
00000110: 260b cebd a9a7 9fbc 9325 8fbe 4df3 49be
00000120: 714b e3bb 5857 913e 5ca8 86bd 816b 663e
00000130: 91bb 2ebd c78d 15be 5fbe 92be 9650 853e
00000140: 8c99 9b3e cc27 1fbd d120 383e e3ed 7c3e
00000150: b666 403e 1220 a03e 9435 0bbe b3f2 dbbe
00000160: ea28 7bbe c944 033e adee 8abe a445 40be
00000170: 3a0d dfbd b8c3 80be 7005 abba 3cb5 8bbd
00000180: c0a6 b5be 2c53 a93e 7c7e bdbd dafb efbd
00000190: a09b 523e 6489 973e 8bba 22bc 4868 4cbe
000001a0: 1c3b 1ebe d750 f2bc bd77 a73d c548 713e
000001b0: 0974 b4bd ffde 87be 3050 8fbe 6b99 22be
000001c0: ea25 16bd 0d32 2abe 7535 6cbe 2c8a 483e
000001d0: 8534 83bd d883 d7be 187e b7be d500 23bd
000001e0: b2d8 a03e 63cb d73d 85b2 8ebd cd6a be3c
000001f0: 1f02 373d 7bd0 f5bd dbc8 e1be 13bd f0bc
00000200: 1b10 74be f539 873c 14a6 b3be 84d6 83bb
00000210: 854f 61bd 5c28 c13e 6afa b93e 22f6 a93e
00000220: 2844 453e f6a2 53be 5466 d33d f659 5abe
00000230: 10ba b4bd 1691 e2bc 20cb 46bd addc 90be
00000240: f6e5 973d d6a8 f73d 4680 a4be d685 573e
00000250: 0ca3 a0bc 6a47 2fbd 3467 72bb 56bd 953e
00000260: f4ad 813d c4eb 36be 89a8 7ebd 242a 833e
00000270: 92d2 4d3e c7de 85bd 84fe 54bd 5acc 18be
00000280: 322d 16be f6b1 0dbe 892c ba3d 3a29 0b3e
00000290: 54f0 a33e a44d 403d 16c1 2c3e 75d2 9a3d
000002a0: ee2c 133e 582f 653d e8ac 373d 9cd3 9c3d
000002b0: 5556 56be aa99 9b3d 1151 14bc b7ff 823e
000002c0: 9b62 7f3e f93f c63d 1c6d 9b3e 6b4c 31be
000002d0: 2fa0 9f3e cd12 533e d8a5 88bd d5f1 95be
000002e0: 3fd9 dcbd 85b1 063d 7a35 343e 2313 e6be
000002f0: 6ab8 2fbc 1f9a f8bd e6b8 aebd a1dd 11be
00000300: 36cb 3bbd a077 88be f5e3 11be 1108 1f3d
00000310: a088 623e 0f6e 8e3e c9dc 80be f5c4 d53d
00000320: f1f0 11be 79bc 5cbe bf0a 8d3b 3de2 2abe
00000330: e7d9 9cbe abe7 c7be ca32 c5be bbd2 c13e
00000340: 7552 323e 05ab 03be fdde 4ebe 9182 3abe
00000350: 0fae 0dbe 0da7 b7bd d0ed 303e 1e1f 25bd
00000360: a145 94be 0718 b53e f5ec 0dbe 394c 84be
00000370: 7507 2abd 6df5 8ebd 06fd 4b3e c885 c53e
00000380: 7c12 42bc 0c02 c8bd a178 933e eb66 d1be
00000390: 6bca bb3e 7f5c 2dbe 6929 093e fcde 8bbe
000003a0: 0e09 66be 2419 0a3d 4f3d 183e a68c ae3e
000003b0: f025 d53e ccda 16be bc37 f1bd e260 6d3d
000003c0: 3cf4 febd 3a95 6f3d ca8a 81be c9fe 5abe
000003d0: 6eae 893e 81c0 31be b7e4 803e defc 483d
000003e0: a57f 093e da81 863e 08d3 7ebe b8a1 23bc
000003f0: 2319 d83d 1124 2b3e ee99 63be d4b9 693e

model.0.bias f4 [32]
-0.009266614 -0.21110284 0.44911763 -0.0011655542 0.18778017 0.38331157 -0.21938159 -0.005599798
0.31745523 0.30519316 -0.09503797 0.38458803 -0.16788249 -0.07323368 0.19882686 0.08265658
0.41548976 -0.009283627 -0.010105165 0.3061431 0.3211436 0.034600675 -0.0418846 0.12309526
-0.16067825 0.35737804 0.09396095 0.15934129 0.21575864 0.22732542 -0.08747286 0.392365
00000000: ffd2 17bc 582b 58be bff2 e53e 82c5 98ba
00000010: 7249 403e 6a41 c43e 91a5 60be 837e b7bb
00000020: 7e89 a23e 4742 9c3e 44a3 c2bd b9e8 c43e
00000030: 63e9 2bbe 8afb 95bd 4599 4b3e da47 a93d
00000040: 13bb d43e 5b1a 18bc 2290 25bc cabe 9c3e
00000050: ef6c a43e 70b9 0d3d 308f 2bbd 5e19 fc3d
00000060: d788 24be 41fa b63e 996e c03d 5d2a 233e
00000070: d5ef 5c3e ffc7 683e f924 b3bd 11e4 c83e

model.3.weight f4 [16, 32]
0.13521041 -0.13108538 0.30096498 0.13072766 -0.13146055 0.011428888 0.045277104 -0.050645526
0.2616677 0.040049136 -0.029112699 0.27780324 -0.17892303 0.17740607 -0.1578341 0.16025959
0.14488749 0.20153183 0.09818525 -0.028233934 0.016683923 0.016167592 0.16739032 0.07362874
0.1033661 0.039108027 0.18812963 0.08540864 -0.08378129 0.12055768 -0.035091497 0.04597043
0.14851715 0.098271705 -0.19690673 0.0051330016 -0.03938025 -0.16612104 -0.0074046515 0.0032193693
-0.05961563 0.2314807 -0.07782072 -0.10122233 0.10904787 -0.02031811 0.023055065 0.089866064
-0.029723374 -0.14250942 -0.020566324 0.099954166 0.13818675 0.18241696 0.0012048563 0.078379765
0.05559195 0.18080473 0.025545053 -0.07269301 0.019553268 0.041912388 0.2457307 -0.052840963
0.18434727 0.015609851 0.16332719 0.08690792 -0.12290685 0.29962385 0.09116479 0.21551993
0.0011513471 -0.15114513 0.044052303 0.2617499 -0.031494126 0.1804565 -0.17899674 0.16181341
-0.02786011 -0.031878635 0.13208243 -0.042426884 0.060428783 -0.1773095 0.19557936 0.24435477
-0.053873695 0.13837951 0.004695731 0.15412386 0.08141241 0.033350594 -0.2041409 0.20800576
-0.014637482 -0.028036956 0.09068974 -0.071537964 -0.009111312 0.07228153 0.038062822 -0.13984802
0.0019611374 -0.16200085 -0.113344215 0.061384175 -0.06289424 -0.1081596 -0.01955548 0.007794526
-0.12735109 -0.1419045 -0.17999966 0.008081144 -0.11311104 -0.015721811 -0.05187066 -0.14039291
-0.07149307 -0.13215697 -0.085189536 -0.032526664 -0.11702295 -0.17189011 0.025226573 -0.016385596
-0.024788309 -0.008302835 0.3347738 -0.031219373 -0.16934611 0.029774282 0.08959363 0.13803676
0.048958078 0.05684526 -0.09151046 0.30016765 -0.21400766 0.16609627 0.021351794 0.13810246
0.2709467 0.06262479 0.12767217 -0.04750903 -0.048713636 0.06746969 0.3443838 0.20552155
0.008796674 0.23674843 0.050885193 0.18738359 -0.16795065 0.06918194 -0.26121172 0.24506722
0.06075317 -0.040856425 -0.09697414 -0.06738453 0.12324239 0.049332507 -0.062467124 0.011833412
-0.12628397 0.15065148 -0.09873057 0.027907189 0.32979986 0.056529563 0.14930296 0.007512316
0.15468404 -0.051946178 0.06653157 0.06985793 0.28378206 0.26817307 -0.16589145 -0.08172496
-0.110717945 0.09371796 -0.12801321 0.08287133 0.057553824 0.064522624 0.20284824 -0.011389303
0.08586466 0.07254261 -0.24254024 0.13516276 0.23148434 0.033589125 -0.07463839 0.012805386
-0.16843885 -0.0093428865 0.076825716 0.012991064 0.1777942 -0.23694481 0.15072317 -0.15694958
0.11932808 0.06944127 0.00052841834 0.12086159 0.18701209 0.175863 -0.13534597 0.07131031
-0.017759658 0.10155011 -0.039066873 0.12532935 0.23017621 -0.17488083 0.23415433 -0.13002636
-0.03402838 -0.13756767 0.03931875 -0.100014135 -0.051144198 -0.08191454 0.029919833 -0.096789785
-0.06312617 -0.026594182 0.0030070143 -0.07386152 0.032343276 -0.10512471 -0.119488426 0.019164236
-0.093125194 0.08582731 -0.111205176 -0.025304308 0.04574134 -0.13165726 0.11817321 -0.07891392
-0.050555132 -0.087893724 -0.055917356 -0.05230642 -0.14423992 0.046038732 -0.0045386823 0.14495814
00000000: 9974 0a3e 3f3b 06be 1518 9a3e 79dd 053e
00000010: 989d 06be 3b40 3b3c 7c74 393d af71 4fbd
00000020: 4ff9 853e 900a 243d c17d eebc 3a3c 8e3e
00000030: 9937 37be f0a9 353e 439f 21be 171b 243e
00000040: 635d 143e 5c5e 4e3e 5915 c93d da4a e7bc
00000050: b9ac 883c e671 843c 5e68 2b3e aaca 963d
00000060: 9bb1 d33d bd2f 203d 0ea5 403e baea ae3d
00000070: 8695 abbd f2e6 f63d 1abc 0fbd 7d4b 3c3d
00000080: e114 183e ad42 c93d eba1 49be bd32 a83b
00000090: 2f4d 21bd a21b 2abe b8a2 f2bb 0efc 523b
000000a0: 852f 74bd 4709 6d3e 7860 9fbd a74d cfbd
000000b0: 7d54 df3d 2a72 a6bc fadd bc3c b30b b83d
000000c0: 6f7e f3bc fded 11be b57a a8bc c5b4 cc3d
000000d0: d480 0d3e 83cb 3a3e 45ec 9d3a 9285 a03d
000000e0: 62b4 633d e024 393e dc43 d13c 13e0 94bd
000000f0: 2d2e a03c 53ac 2b3d d4a0 7b3e c46f 58bd
00000100: 88c5 3c3e 76c0 7f3c 3e3f 273e c8fc b13d
00000110: 96b6 fbbd 4c68 993e 9bb4 ba3d 42b1 5c3e
00000120: cce8 963a cac5 1abe 3070 343d 1504 863e
00000130: fcff 00bd 97c9 383e ec4a 37be 6ab2 253e
00000140: e33a e4bc 2c93 02bd 9e40 073e d0c7 2dbd
00000150: 2c84 773d 9f90 35be f545 483e 2338 7a3e
00000160: aaaa 5cbd 5cb3 0d3e a6de 993b a5d2 1d3e
00000170: 8dbb a63d a29a 083d 500a 51be 76ff 543e
00000180: 0dd2 6fbc c2ad e5bc 8bbb b93d 7f82 92bd
00000190: 9d47 15bc 5708 943d c3e7 1b3d 5234 0fbe
000001a0: 6d86 003b 8de3 25be 0321 e8bd f96d 7b3d
000001b0: b2ce 80bd c882 ddbd d032 a0bc 3969 ff3b
000001c0: 5368 02be 6a4f 11be d551 38be c666 043c
000001d0: c3a6 e7bd 07cb 80bc 5476 54bd 29c3 0fbe
000001e0: f56a 92bd 2854 07be da77 aebd ae3a 05bd
000001f0: baa9 efbd f603 30be f5a7 ce3c 163b 86bc
00000200: da10 cbbc 9d08 08bc 7967 ab3e c5bf ffbc
00000210: 1169 2dbe 32e9 f33c dd7c b73d 8259 0d3e
00000220: 4488 483d 93d6 683d d669 bbbd 93af 993e
00000230: d324 5bbe 2415 2a3e f5e9 ae3c bb6a 0d3e
00000240: 87b9 8a3e 6d41 803d 7ebc 023e d498 42bd
00000250: f387 47bd 8d2d 8a3d 1353 b03e 3e74 523e
00000260: ed1f 103c 2e6e 723e fe6c 503d 7ce1 3f3e
00000270: 41fb 2bbe 43af 8d3d 8bbd 85be e7f2 7a3e
00000280: 51d8 783d 1159 27bd 619a c6bd e700 8abd
00000290: 8266 fc3d e210 4a3d 87dd 7fbd ede0 413c
000002a0: 9650 01be 6244 1a3e 4133 cabd 9e9d e43c
000002b0: 87db a83e 8b8b 673d e0e2 183e e029 f63b
000002c0: 7e65 1e3e 84c5 54bd b441 883d ad11 8f3d
000002d0: e24b 913e fb4d 893e 73df 29be 6a5f a7bd
000002e0: 17c0 e2bd 34ef bf3d e515 03be 72b8 a93d
000002f0: 8fbd 6b3d 7024 843d 73b7 4f3e 339a 3abc
00000300: d0d9 af3d 3891 943d 785c 78be 1b68 0a3e
00000310: 3b0a 6d3e c094 093d 03dc 98bd afcd 513c
00000320: 3c7b 2cbe e812 19bc cd56 9d3d 79d8 543c
00000330: af0f 363e a9a1 72be 2d57 1a3e 64b7 20be
00000340: 4862 f43d 3937 8e3d 8e85 0a3a 4886 f73d
00000350: 1980 3f3e 6e15 343e 2298 0abe 240b 923d
00000360: b47c 91bc 81f9 cf3d 9604 20bd 5656 003e
00000370: 50b3 6b3e f613 33be 27c6 6f3e a125 05be
00000380: 5861 0bbd 8ade 0cbe b30c 213d 36d4 ccbd
00000390: 947c 51bd cfc2 a7bd 701a f53c b939 c6bd
000003a0: 4b48 81bd 0bdc d9bc 5411 453b b544 97bd
000003b0: 627a 043d a04b d7bd 59b6 f4bd 51fe 9c3c
000003c0: 6cb8 bebd 3bc6 af3d 8abf e3bd fb4a cfbc
000003d0: 455b 3b3d 29d1 06be cc04 f23d 9f9d a1bd
000003e0: e612 4fbd a001 b4bd 9909 65bd 423f 56bd
000003f0: a1b3 13be 1c93 3c3d 3ab9 94bb e86f 143e

model.3.bias f4 [16]
0.13387914 0.04858216 0.2862018 -0.014220578 0.081904925 -0.16935723 0.015196974 0.0488176
0.27826944 -0.0823434 0.07991888 0.118077435 0.089981444 0.060444187 -0.20485704 0.08876701
00000000: 9d17 093e 16fe 463d 0b89 923e 6dfd 68bc
00000010: c5bd a73d fb6b 2dbe bbfc 783c f7f4 473d
00000020: 5579 8e3e a8a3 a8bd 82ac a33d 95d2 f13d
00000030: 3148 b83d 5394 773d 0bc6 51be 7acb b53d

model.6.weight f4 [1, 16]
0.25685152 -0.18517126 0.27489883 -0.00747859 0.20546493 -0.19408382 -0.2805966 0.01928401
0.27819625 -0.056085736 -0.18888517 0.17858218 0.21799858 -0.030327056 -0.15902643 -0.15080065
00000000: 0b82 833e 899d 3dbe 8abf 8c3e f60e f5bb
00000010: 6665 523e e9bd 46be 5caa 8fbe 80f9 9d3c
00000020: bd6f 8e3e 28ba 65bd 1d6b 41be 3fde 363e
00000030: 053b 5f3e 7270 f8bc d3d7 22be 7c6b 1abe
